KD_LR/latent/yahooR3/combine_V_BiasedMF_10.npy (npy, 40128 bytes, 1 tensors)

array f4 [1000, 10]
000000 44 d8 0c b8 c2 ff b9 b7 9b c8 b0 b7 2c 70 09 37
       -3.3580014e-05 -2.2172815e-05 -2.107425e-05 8.191953e-06
000010 c2 2d 08 37 cc 7a 1b 37 28 47 53 35 0a 75 c4 b7
       8.1168855e-06 9.267311e-06 7.870717e-07 -2.3419521e-05
000020 b4 42 08 36 be 9d 67 36 3a f9 d0 35 42 73 20 b3
       2.0304406e-06 3.45135e-06 1.5569742e-06 -3.735773e-08
000030 ae 98 a2 35 d2 09 a2 35 eb 16 90 b4 58 f0 cf b5
       1.2114376e-06 1.2072799e-06 -2.6838765e-07 -1.5492651e-06
000040 22 d5 3a b5 e4 19 88 b5 12 93 50 35 06 dc 11 36
       -6.960055e-07 -1.0140325e-06 7.7700054e-07 2.1734754e-06
000050 90 7a b0 b5 d0 e7 92 b5 2d 55 eb 35 4d 00 a0 35
       -1.3148692e-06 -1.0945314e-06 1.7533654e-06 1.1921016e-06
000060 f9 b6 54 b4 f9 21 05 b5 9b 88 b2 b5 e1 a9 03 b6
       -1.9810604e-07 -4.95958e-07 -1.3301791e-06 -1.9619404e-06
000070 22 a6 e3 35 44 2f 7c 36 90 57 8e 37 66 ea d0 37
       1.6961169e-06 3.7578438e-06 1.6968494e-05 2.4904683e-05
000080 e9 38 ec 37 08 f3 4a b8 f8 1f a0 b7 e4 51 bc b6
       2.8159893e-05 -4.8386893e-05 -1.9088373e-05 -5.61237e-06
000090 20 8a d1 b7 06 e0 4b 37 b2 07 e8 b6 23 73 a3 37
       -2.4979061e-05 1.2151902e-05 -6.9150346e-06 1.9484729e-05
0000a0 fe 4c 91 b4 39 5a ac 34 31 f0 c6 34 07 2e 1b b4
       -2.7064374e-07 3.2103142e-07 3.7055136e-07 -1.4452245e-07
0000b0 5d 64 21 b5 54 8b d9 34 a7 15 1e b4 78 0b 36 35
       -6.012322e-07 4.0520774e-07 -1.4722774e-07 6.781697e-07
0000c0 b2 47 46 35 9e f6 4e 34 da b1 ec b5 22 e2 ce b6
       7.386508e-07 1.9274964e-07 -1.7635132e-06 -6.1656037e-06
0000d0 00 2a bb b5 0a e9 6f 36 a0 29 e9 34 51 37 66 36
       -1.3944809e-06 3.5749422e-06 4.3429918e-07 3.430487e-06
0000e0 99 e1 b6 35 42 ff ae 35 68 a2 0a 36 9a 8c 13 b7
       1.3625714e-06 1.30383e-06 2.0658135e-06 -8.794619e-06
0000f0 ba 39 85 b4 0c 8f 5f 35 88 c3 63 34 00 90 ce b3
       -2.4815182e-07 8.3282134e-07 2.1212156e-07 -9.618816e-08
000100 39 f5 74 b5 88 24 d0 b4 35 fe 6c 34 2f c4 14 35
       -9.125393e-07 -3.87696e-07 2.2071693e-07 5.541978e-07
000110 dc 25 8e b6 d0 c6 d9 b4 f5 a1 c9 b4 0a b0 84 b5
       -4.236337e-06 -4.0564055e-07 -3.7557007e-07 -9.886e-07
000120 f0 ff a0 35 23 a7 63 b3 db 95 1a b5 6f 76 29 35
       1.1995417e-06 -5.3004566e-08 -5.758754e-07 6.312975e-07
000130 ec 0e c4 32 75 83 87 b4 95 a7 1d b5 60 f9 95 b3
       2.2824189e-08 -2.5241357e-07 -5.873092e-07 -6.983714e-08
000140 40 e0 e6 b7 c6 6a 0f b8 de 13 4f 37 78 53 a5 35
       -2.7522561e-05 -3.4193297e-05 1.2342787e-05 1.2317751e-06
000150 74 61 b4 b5 ac 48 d8 37 ec 3a 29 35 0c 76 1d b6
       -1.3439408e-06 2.5783047e-05 6.304315e-07 -2.3463535e-06
000160 1f c9 ab 36 90 3c 71 b5 74 fd ff b3 d1 f5 a3 b5
       5.1196107e-06 -8.9867626e-07 -1.1920466e-07 -1.2215988e-06
000170 9c 8b 38 35 d3 99 4d 33 fc 7b a6 33 0a 0d 6e b6
       6.87485e-07 4.7870184e-08 7.75253e-08 -3.5472353e-06
000180 eb c1 9b b5 9a 2a 77 34 99 27 d3 33 e0 66 7c b3
       -1.1604837e-06 2.3019166e-07 9.832656e-08 -5.8766886e-08
000190 1c 5d e7 37 98 d9 75 38 b4 aa 74 b7 a2 40 0b 38
       2.7580703e-05 5.8615202e-05 -1.4583278e-05 3.3200376e-05
0001a0 f2 90 d9 36 a4 1f b6 b6 24 53 48 b7 24 e6 8d 37
       6.483978e-06 -5.427706e-06 -1.1940287e-05 1.6915677e-05
0001b0 cf 53 f7 36 eb 90 a1 b8 40 15 2c b7 40 60 13 38
       7.3709302e-06 -7.704071e-05 -1.0256947e-05 3.513717e-05
0001c0 74 27 49 b7 55 56 2b 38 48 30 90 37 d0 9f 24 b7
       -1.19897195e-05 4.084998e-05 1.718862e-05 -9.812371e-06
0001d0 1a 48 be 37 bc a1 25 b7 8b 70 2a b6 74 70 9b b6
       2.268334e-05 -9.872423e-06 -2.5397483e-06 -4.6324512e-06
0001e0 4c 1b 0a b3 ec 0d 05 35 00 4e f3 b3 4a 72 51 34
       -3.2155455e-08 4.956662e-07 -1.13297574e-07 1.950622e-07
0001f0 d1 77 9a 33 3e 36 3e 34 32 16 08 b5 9d 9a 0a b5
       7.192978e-08 1.7714862e-07 -5.0696246e-07 -5.1634e-07
000200 3d 18 2e 34 94 1b 0c b4 7c 2f 5d b7 10 a0 37 37
       1.621383e-07 -1.3048549e-07 -1.3183682e-05 1.0944917e-05
000210 7c 7b 41 36 2e 8e 8a b7 34 69 37 b7 66 17 23 37
       2.8831118e-06 -1.651709e-05 -1.09321445e-05 9.721005e-06
000220 ec da de b7 32 eb 83 b7 10 de 70 b8 e7 0c 58 37
       -2.6566406e-05 -1.5725938e-05 -5.742727e-05 1.2877607e-05
000230 98 28 da b4 8c d7 6b 37 23 d9 84 b5 dc f0 80 35
       -4.06352e-07 1.4057277e-05 -9.897961e-07 9.606842e-07
000240 84 89 f8 35 c0 72 f4 33 68 4f 3a b6 d1 7a 2a b5
       1.8517462e-06 1.1383008e-07 -2.776238e-06 -6.3508656e-07
000250 5e e2 83 b4 66 8e 24 36 bf a3 6e 35 dc 88 e4 b4
       -2.4565355e-07 2.4520791e-06 8.890019e-07 -4.2567888e-07
000260 1c 8e 14 b5 da 09 e9 34 12 04 fb 34 36 90 66 35
       -5.534109e-07 4.34068e-07 4.6755355e-07 8.589153e-07
000270 ce 9d ba b4 c8 8a 9a 35 3f a7 ad 35 a6 1d 88 35
       -3.4760018e-07 1.1514285e-06 1.293818e-06 1.0141418e-06
000280 2c e1 da b3 58 8a 4d 35 a5 9a f9 b5 e0 49 ff b4
       -1.01923746e-07 7.656977e-07 -1.8596953e-06 -4.7551202e-07
000290 6c 44 a6 33 c0 e1 02 b6 eb 70 20 36 18 08 86 33
       7.742423e-08 -1.9502913e-06 2.3907585e-06 6.2413335e-08
0002a0 48 04 2d b5 57 de c1 b5 3a d5 4b 36 24 a5 4b 37
       -6.445375e-07 -1.444433e-06 3.0373471e-06 1.2138193e-05
0002b0 40 8b ff 35 31 34 62 b5 21 52 2b b8 69 c2 10 b6
       1.9039508e-06 -8.426751e-07 -4.0846066e-05 -2.1570834e-06
0002c0 84 9b 11 35 da b2 f7 b5 2b 6f 27 b7 2c 00 a9 36
       5.4243014e-07 -1.8454987e-06 -9.979859e-06 5.0366125e-06
0002d0 3c 80 20 37 c8 48 09 b7 62 ed 21 38 32 21 80 37
       9.5666e-06 -8.182782e-06 3.860647e-05 1.5274247e-05
0002e0 87 ee 23 37 e2 c8 73 37 fa a3 31 36 d8 15 2e 37
       9.771094e-06 1.45307e-05 2.6470502e-06 1.0376294e-05
0002f0 34 80 90 37 cc 04 5b b7 19 e2 1c b4 58 91 5d b4
       1.7225837e-05 -1.3054534e-05 -1.4610886e-07 -2.0635105e-07
000300 1a 4f 4d b5 5b d5 92 35 40 9b c6 b2 24 5f 3e 35
       -7.648356e-07 1.0939942e-06 -2.3120833e-08 7.0918964e-07
000310 81 41 43 b5 3a 27 50 35 77 d7 c7 b4 1f dc 85 33
       -7.273848e-07 7.754312e-07 -3.722341e-07 6.233335e-08
000320 03 e4 49 37 c0 33 2a b8 12 20 f7 37 20 4c b9 37
       1.2033622e-05 -4.0579354e-05 2.9459628e-05 2.2089167e-05
000330 70 e0 94 37 e3 83 1f 37 28 1f 07 b8 4f 09 3e b8
       1.7747487e-05 9.507846e-06 -3.2215525e-05 -4.53082e-05
000340 86 d8 bf b7 ac e5 98 37 95 6a 71 36 28 4e 13 35
       -2.28698e-05 1.8226761e-05 3.5973837e-06 5.48755e-07
000350 09 58 fc 34 2b 4a b0 b5 f5 66 d8 35 92 c5 f9 b4
       4.7002712e-07 -1.3134608e-06 1.6123219e-06 -4.6523616e-07
000360 77 95 97 35 dc ac 16 b5 ce ef 43 b5 9e b6 76 34
       1.1293877e-06 -5.61309e-07 -7.299212e-07 2.2976971e-07
000370 e0 f8 16 36 44 88 01 b8 e9 73 c1 37 ec 05 12 b8
       2.2496606e-06 -3.0882904e-05 2.3061368e-05 -3.4814628e-05
000380 e0 7d 87 b5 3f 68 08 38 c6 e0 3b b7 5e e4 f0 36
       -1.0094918e-06 3.2522013e-05 -1.1198403e-05 7.179143e-06
000390 6b a0 2b b7 ee 5f e5 36 45 20 20 b6 4b 18 df b6
       -1.02297445e-05 6.8358995e-06 -2.3860641e-06 -6.648746e-06
0003a0 e7 76 41 35 43 08 aa b5 40 62 bc b5 c0 d0 46 b5
       7.207113e-07 -1.2668391e-06 -1.4035686e-06 -7.406452e-07
0003b0 c2 60 d9 b5 54 f5 65 b6 7a 5b 85 b4 66 10 2b 36
       -1.619592e-06 -3.426646e-06 -2.4839738e-07 2.549053e-06
0003c0 e2 9d dd 35 d8 ca 95 b5 d8 8e 9f b5 47 a8 39 b6
       1.6511733e-06 -1.11604e-06 -1.1887996e-06 -2.7665099e-06
0003d0 2d 9b b3 b4 1e a6 76 35 22 a3 03 35 8c e6 ab 36
       -3.3454253e-07 9.1883874e-07 4.903869e-07 5.1230363e-06
0003e0 36 fb 27 36 e0 bb 23 33 38 a2 33 34 be e8 07 33
       2.5031163e-06 3.8122266e-08 1.6729689e-07 3.1643815e-08
0003f0 10 3f 21 32 d3 3f 3c b4 60 3e 9f b3 16 1b d6 b3
       9.385772e-09 -1.7532084e-07 -7.4153604e-08 -9.9700785e-08
