KD_LR/latent/yahooR3/combine_U_BiasedMF_10.npy (npy, 616128 bytes, 1 tensors)

array f4 [15400, 10]
00000000: 2656 3d36 5ecf 12b6 d7b3 07b6 0de4 0537
00000010: fa75 d2b6 a84e 4536 8878 6637 fb6c fb36
00000020: d85b 8336 b7e4 82b6 57b7 6db5 aad6 a234
00000030: 37d5 49b5 8f60 8135 9ebc 87b5 528b fa34
00000040: d0a9 bab4 d5e6 9735 9b39 8fb5 f283 16b5
00000050: 9169 77b6 ae62 1736 8e4c 87b7 0003 02b2
00000060: 4522 8f36 9aaf acb6 9046 4236 033e c9b6
00000070: f184 3ab7 c096 fa34 fbbf 59b5 13e7 adb5
00000080: dd8d 8335 c4de ffb5 ce1e 9335 aed4 12b5
00000090: 8dba 6634 0586 1a35 4cdd 7734 a335 3b34
000000a0: 9d65 2fb5 b2dc ebb6 3040 65b3 cc47 0fb6
000000b0: 586a 1ab6 3476 5bb6 27e9 c136 6739 1437
000000c0: 70e1 7eb6 cf12 3c35 30e3 3234 70bf 5736
000000d0: 42b0 9435 5dd2 e636 ca73 b9b4 81fb 81b6
000000e0: d002 d736 62cb 1a37 ac21 1a35 2c21 3635
000000f0: 72eb cf37 e84e 4937 4ac5 2637 6b5d f836
00000100: 1e15 4337 7a24 e937 c05f e8b7 50e5 9d35
00000110: d268 ae36 489b 7536 9d3e a537 c268 29b7
00000120: 8321 9136 50a2 8634 e18e 7536 a4b6 0eb7
00000130: a1a8 8236 1f4e 4336 31e9 4836 5a84 bc36
00000140: f2d5 f9b6 8c0f 72b6 dee4 b536 c6bf eab6
00000150: 440c 2bb6 e710 9936 c684 36b7 d317 1cb7
00000160: 4739 86b5 06a8 a9b6 8212 8434 2f96 5a35
00000170: 91f0 86b5 a846 2c36 6221 3cb5 2afa 83b6
00000180: 19b7 9d35 fd24 2b37 db55 5db6 6291 7e35
00000190: de9b 03b7 a07f 7c32 d001 08b6 6cac 5ab6
000001a0: 8023 2fb4 2df3 e6b6 b7e7 8535 78a8 1ab5
000001b0: bbb2 1c36 ac5d 05b6 d0e8 2bb5 e085 3cb5
000001c0: 0647 a036 1091 0d36 35d9 e4b5 0857 9036
000001d0: 9e3d a8b5 7404 d235 0771 39b6 d345 4c36
000001e0: bdad 3ab6 a825 13b6 212f 39b5 01d8 4b36
000001f0: 3996 a6b7 5d1b 1db6 cb03 bb37 6e2f 95b5
00000200: f9df 9cb6 9470 2736 c7ea 62b6 1b21 bab5
00000210: 3185 bdb6 cb18 0636 a814 f433 57a4 a2b6
00000220: 202b 0132 4269 cd35 f7d3 0c36 cb04 9ab6
00000230: 7e09 0036 3cb2 e934 5ba5 2635 4f03 2137
00000240: d686 8cb4 1c08 e4b5 b104 c736 4eb7 12b6
00000250: 9f35 e335 16b4 eb36 532d ebb6 4eb1 0935
00000260: bde4 c2b5 4827 81b5 f530 db35 72ea f435
00000270: f217 bb36 b744 0b36 441e 64b6 a053 6a33
00000280: c4d4 b3b4 9892 7a34 e3f4 54b4 d8ab ceb4
00000290: 212b 5a35 1197 d8b4 240e 17b3 08ac 3933
000002a0: 1447 8035 9f15 81b4 297b 8236 0087 c335
000002b0: c4ca b935 8c96 ba35 9e1a ea36 0c2a 2537
000002c0: 9402 9bb7 707f c0b5 de08 93b6 78b9 66b6
000002d0: 3ee2 abb4 c7de 2436 221c bfb6 d08e a1b5
000002e0: b8a5 bcb5 7077 9734 da88 c836 2edc 42b6
000002f0: c1f1 3636 d0e0 0936 5434 7736 2bbb efb6
00000300: 7499 92b5 f8a5 3536 569c 0d37 a42f 9d36
00000310: 9e72 55b6 19e4 c6b6 7c8f a6b6 4848 0cb7
00000320: 6a90 dab6 fbda 44b6 f6d7 ddb4 88ea a6b6
00000330: 3492 57b5 08e6 d5b5 d996 2eb6 76c7 d334
00000340: ffa2 44b6 c024 e7b3 fdf9 deb5 e0e4 6c36
00000350: e01d 1735 823a 9634 3496 a6b3 d07a df34
00000360: 5ccf 6f35 789e ec35 720b f5b4 7b38 dc35
00000370: f044 8eb6 528b 4835 9b6b ddb5 4f78 47b6
00000380: 3c5e 47b5 eb10 c834 2a4b ceb6 b615 deb5
00000390: f15e 1d37 1f5f 7ab6 f695 82b4 c5d9 0535
000003a0: f49d b136 20b2 55b4 a806 9cb6 1a6e 4b36
000003b0: 6a71 12b6 90dd 88b5 8405 39b5 19c9 6236
000003c0: 540f 9eb5 d2f0 abb5 5e74 c7b5 1af2 f3b5
000003d0: f056 8cb4 04b2 47b6 ae21 42b5 321e 02b6
000003e0: 7e20 c0b5 80aa 1436 ed6b b1b6 5d77 28b7
000003f0: b49c 99b6 a686 9136 2648 8235 ff55 3537
2.821334e-06 -2.18764e-06 -2.0221248e-06 7.980515e-06 -6.272222e-06 2.9401072e-06 1.3737132e-05 7.49307e-06
3.9147963e-06 -3.900928e-06 -8.8556175e-07 3.033104e-07 -7.5188603e-07 9.639351e-07 -1.0113179e-06 4.6667498e-07
-3.4768755e-07 1.1317558e-06 -1.0671096e-06 -5.607136e-07 -3.6867316e-06 2.2558193e-06 -1.6128903e-05 -7.567678e-09
4.2657216e-06 -5.146442e-06 2.8949325e-06 -5.997486e-06 -1.1117417e-05 4.6675814e-07 -8.111817e-07 -1.2956756e-06
9.801548e-07 -1.9063814e-06 1.0961319e-06 -5.469873e-07 2.1488286e-07 5.7564495e-07 2.3084175e-07 1.7435245e-07
-6.5340447e-07 -7.029238e-06 -5.3376596e-08 -2.1350452e-06 -2.3009688e-06 -3.2702346e-06 5.7789907e-06 8.834852e-06
-3.7980171e-06 7.006283e-07 1.6660192e-07 3.2148928e-06 1.1078157e-06 6.8790237e-06 -3.4543183e-07 -3.8737785e-06
6.4078267e-06 9.226469e-06 5.741847e-07 6.7848555e-07 2.478596e-05 1.1998905e-05 9.940306e-06 7.4018512e-06
1.16278225e-05 2.779275e-05 -2.7701142e-05 1.176415e-06 5.197807e-06 3.659823e-06 1.969869e-05 -1.0097576e-05
4.325238e-06 2.5077543e-07 3.6591011e-06 -8.506384e-06 3.893933e-06 2.9102737e-06 2.9938058e-06 5.6182444e-06
-7.445685e-06 -3.606986e-06 5.420864e-06 -6.996069e-06 -2.5488125e-06 4.561723e-06 -1.0878959e-05 -9.303872e-06
-1.0000448e-06 -5.056153e-06 2.4600382e-07 8.1429874e-07 -1.0053792e-06 2.5671125e-06 -7.0084036e-07 -3.933227e-06
1.17507e-06 1.0201006e-05 -3.298154e-06 9.4833933e-07 -7.844499e-06 1.4697349e-08 -2.0266634e-06 -3.2584894e-06
-1.631106e-07 -6.8828435e-06 9.97671e-07 -5.7614625e-07 2.3349846e-06 -1.9873069e-06 -6.404125e-07 -7.023027e-07
4.77664e-06 2.1095075e-06 -1.7050539e-06 4.301666e-06 -1.2534908e-06 1.5647515e-06 -2.7632939e-06 3.0439012e-06
-2.7817289e-06 -2.1926626e-06 -6.898645e-07 3.0375088e-06 -1.9858695e-05 -2.341075e-06 2.2293903e-05 -1.1115169e-06
-4.675236e-06 2.4950468e-06 -3.3813283e-06 -1.3867715e-06 -5.6481445e-06 1.9981987e-06 1.1365893e-07 -4.847108e-06
7.518594e-09 1.5304324e-06 2.0985005e-06 -4.5901156e-06 1.9079012e-06 4.3529315e-07 6.208044e-07 9.597118e-06
-2.6175138e-07 -1.6989684e-06 5.9312083e-06 -2.1862393e-06 1.6928424e-06 7.0245105e-06 -7.008822e-06 5.129449e-07
-1.4520698e-06 -9.622681e-07 1.633102e-06 1.8247649e-06 5.575822e-06 2.0752611e-06 -3.3992264e-06 5.4558427e-08
-3.3496156e-07 2.3336395e-07 -1.9833128e-07 -3.8495523e-07 8.127409e-07 -4.034305e-07 -3.5170288e-08 4.323013e-08
9.55743e-07 -2.4043854e-07 3.8886396e-06 1.4567922e-06 1.3842587e-06 1.3901895e-06 6.976842e-06 9.844556e-06
-1.847864e-05 -1.4342204e-06 -4.3819737e-06 -3.4380628e-06 -3.2015845e-07 2.4567578e-06 -5.6955187e-06 -1.2036999e-06
-1.4055322e-06 2.8212844e-07 5.976396e-06 -2.9036414e-06 2.7260833e-06 2.054545e-06 3.6836327e-06 -7.1445443e-06
-1.0922508e-06 2.7067708e-06 8.440655e-06 4.6845107e-06 -3.180619e-06 -5.927414e-06 -4.9638893e-06 -8.36148e-06
-6.5137183e-06 -2.933374e-06 -4.132159e-07 -4.9744885e-06 -8.0306495e-07 -1.5936685e-06 -2.6015825e-06 3.944694e-07
-2.9301152e-06 -1.07634605e-07 -1.6613045e-06 3.5299963e-06 5.629536e-07 2.7982247e-07 -7.757299e-08 4.1626345e-07
8.9336186e-07 1.7629491e-06 -4.5643134e-07 1.6407715e-06 -4.239955e-06 7.4708544e-07 -1.64971e-06 -2.972334e-06
-7.4270406e-07 3.7265212e-07 -6.1480287e-06 -1.6546608e-06 9.3800345e-06 -3.730827e-06 -2.4323498e-07 4.986326e-07
5.293399e-06 -1.9901972e-07 -4.649937e-06 3.0313445e-06 -2.182171e-06 -1.0197273e-06 -6.8925897e-07 3.3793679e-06
-1.1776378e-06 -1.2810581e-06 -1.4860523e-06 -1.8175372e-06 -2.6140287e-07 -2.975693e-06 -7.231964e-07 -1.9389086e-06
-1.4314571e-06 2.2152963e-06 -5.2875753e-06 -1.0041372e-05 -4.577998e-06 4.337012e-06 9.706753e-07 1.0808463e-05
