KD_LR/latent/yahooR3/combine_uB_BiasedMF_10.npy (npy, 61728 bytes, 1 tensors)

array f4 [15400]
0.08557312 0.7994872 -0.22686434 -0.7572708 -0.25785053 0.38254932 -0.60523254 -0.15967081
-0.54392034 0.35204232 -0.7960941 -0.00916701 0.76589614 -0.10631496 0.5418347 0.56039643
-0.7079525 0.17136167 0.25864285 -0.16475435 -0.5945982 -0.719178 0.40496957 -0.25213233
0.34098288 0.016024642 0.1829209 1.1153212 -0.24605954 0.6166974 -0.30808684 0.28517184
-0.1485743 -0.1321647 -0.52608997 -0.02699045 -0.4038375 -0.24782288 -0.7576083 -0.43280488
-0.73360336 -0.5494591 0.21410735 -0.07423283 -0.77776015 0.75684196 -0.81330043 -0.77406025
0.16577595 0.3872065 -0.6821791 -0.39847082 -0.23587246 0.043948863 0.14987779 -0.89043653
-0.25781122 0.08004752 -0.5579564 -0.776587 0.011541267 -0.6346991 -0.03637336 0.91635394
-0.067933425 1.1244879 -0.043355864 -0.051996388 1.092426 -0.32508996 0.07535978 -0.34899956
0.27395868 -0.3258426 0.20804644 -0.19843592 -0.04528127 -0.10177607 -0.4224918 -0.70020646
-0.4999144 0.2570903 -0.50395405 -0.1589441 -0.11621673 -0.7975839 0.355178 0.062860645
-0.73175275 0.3218516 -0.122889906 0.25994566 0.38857424 -0.70222294 0.6316661 -0.6438148
-0.6433566 -0.50494885 -0.62695646 0.30351484 -0.045137648 -0.12876081 -0.48847342 0.06233588
-0.24883033 -0.15052286 0.90349716 -0.47543526 -0.5095958 0.35141113 0.017650208 0.8994947
-0.74536234 -0.033879265 -0.83724004 0.4909752 -0.09726224 -0.7934441 0.40049914 -0.620869
0.19972582 -0.1899793 -0.09352034 0.12764364 0.16698958 -0.6437848 -0.86059606 -0.33809155
0.30073005 0.84091353 -0.6562173 0.10902926 0.38747218 0.464825 -0.11505869 -0.5806024
0.20573692 0.32397816 0.6378856 -0.13543358 0.746602 -0.46878496 -0.778729 0.38471168
0.7618638 -0.172361 -0.43488955 0.2550424 -0.36618826 -0.35294792 0.15800343 0.23208308
-0.2958881 -0.4598885 -0.25219047 -0.2902735 -0.40289584 -0.5998751 0.27997395 -0.2558957
0.0246908 0.17220773 -0.17866272 -0.19629306 -0.12551534 -0.6474205 0.322091 -0.56654704
-0.7620572 0.20564753 -0.70289385 -0.04857195 -0.7772366 -0.2784006 -0.45335695 -0.20119211
0.22313859 -0.63259465 -0.71604425 -0.5384186 -0.7785157 -0.26157174 -0.448761 -0.526314
0.20690887 -0.5176312 -0.43410134 -0.19299003 0.86213434 -0.65426534 0.6982655 0.44638455
0.030061826 -0.04516998 0.8045928 -0.3542357 -0.035576828 -0.8087773 0.02205247 -0.19865124
-0.6386253 -0.8261487 -0.05107697 0.7169756 -0.16065627 -0.8837639 -0.4943879 0.25058046
-0.043787733 0.16915451 0.7758113 0.41694447 0.30758342 -0.71655065 -0.018676106 -0.6312579
0.692132 -0.47275478 -0.55136186 -0.68152547 -0.58566934 -0.65612113 -0.29719567 -0.14849262
0.7396762 -0.56697994 -0.12384208 0.7826535 -0.491551 0.2510245 -0.094751656 -0.22390439
0.8878429 0.21600133 -0.51233345 0.82742655 0.11359775 0.5075559 -0.06597018 1.0232573
0.34093988 0.28337237 0.52292943 0.34031078 0.099784434 0.42603204 -0.80602074 0.591933
-0.079275474 -0.15373763 -0.48222584 -0.67095584 -0.78940725 0.37684393 -0.6688958 -0.77960944
00000000: f640 af3d 31ab 4c3f 204f 68be 80dc 41bf
00000010: fc04 84be 81dd c33e 85f0 1abf bf80 23be
00000020: 5d3e 0bbf e43e b43e d3cc 4bbf 3a31 16bc
00000030: c511 443f a8bb d9bd aeb5 0a3f 2476 0f3f
00000040: 603c 35bf 6f79 2f3e d66c 843e 5db5 28be
00000050: 9637 18bf 0d1c 38bf 2c58 cf3e 7d17 81be
00000060: 4f95 ae3e 1c46 833c 9e4f 3b3e d8c2 8e3f
00000070: 08f7 7bbe e1df 1d3f 8fbd 9dbe 0b02 923e
00000080: dc23 18be 2f56 07be d5ad 06bf 141b ddbc
00000090: cac3 cebe 48c5 7dbe 9ef2 41bf 9a98 ddbe
000000a0: 6ecd 3bbf 5aa9 0cbf f53e 5b3e 6207 98bd
000000b0: 4a1b 47bf 65c0 413f 7534 50bf d028 46bf
000000c0: 2cc1 293e ee3f c63e 4aa3 2ebf 5e04 ccbe
000000d0: 8d88 71be b903 343d 9079 193e a6f3 63bf
000000e0: d5ff 83be f4ef a33d 3bd6 0ebf 68ce 46bf
000000f0: 9517 3d3c a47b 22bf 3bfc 14bd 2c96 6a3f
00000100: ae20 8bbd 38ef 8f3f eb95 31bd 2afa 54bd
00000110: 9dd4 8b3f 3172 a6be 3a56 9a3d 12b0 b2be
00000120: 5044 8c3e d7d4 a6be 200a 553e c932 4bbe
00000130: da78 39bd f96f d0bd d850 d8be bb40 33bf
00000140: c8f4 ffbe 57a1 833e 2203 01bf 3ec2 22be
00000150: 0903 eebd 752e 4cbf e4d9 b53e 15bd 803d
00000160: 2654 3bbf bcc9 a43e b4ad fbbd 9917 853e
00000170: 34f3 c63e e2c4 33bf dfb4 213f 0cd1 24bf
00000180: 05b3 24bf 5444 01bf 3880 20bf 4c66 9b3e
00000190: 41e2 38bd e0d9 03be 3019 fabe e853 7f3d
000001a0: 61cd 7ebe aa22 1abe 974b 673f 406c f3be
000001b0: df74 02bf 29ec b33e 2b97 903c 4945 663f
000001c0: 11d0 3ebf fcc4 0abd 5d55 56bf 1a61 fb3e
000001d0: 6d31 c7bd 271f 4bbf 390e cd3e 45f1 1ebf
000001e0: ed84 4c3e ef89 42be 9887 bfbd 04b5 023e
000001f0: 51ff 2a3e 15cf 24bf 0650 5cbf 561a adbe
00000200: 4af9 993e 1c46 573f dbfd 27bf bc4a df3d
00000210: c162 c63e 8bfd ed3e e4a3 ebbd 5ca2 14bf
00000220: b3ac 523e 77e0 a53e 784c 233f 1aaf 0abe
00000230: 4f21 3f3f 9504 f0be c95a 47bf eef8 c43e
00000240: 8209 433f 677f 30be d8a9 debe eb94 823e
00000250: 077d bbbe 97b5 b4be a7cb 213e 30a7 6d3e
00000260: a57e 97be 8176 ebbe 1c1f 81be ba9e 94be
00000270: 5d48 cebe 6a91 19bf bf58 8f3e c304 83be
00000280: 5c44 ca3c 3957 303e 5cf3 36be 0c01 49be
00000290: 1887 00be 5abd 25bf 1de9 a43e 3a09 11bf
000002a0: 2e16 43bf 4495 523e daf0 33bf 62f3 46bd
000002b0: faf8 46bf 868a 8ebe 671e e8be 4e05 4ebe
000002c0: 717e 643e b9f1 21bf ad4e 37bf cdd5 09bf
000002d0: ce4c 47bf bbec 85be 00c4 e5be 84bc 06bf
000002e0: ebdf 533e 7a83 04bf 8842 debe 2e9f 45be
000002f0: d6b4 5c3f ef7d 27bf 87c1 323f 848c e43e
00000300: 3844 f63c 2804 39bd cbf9 4d3f 625e b5be
00000310: 02b9 11bd 070c 4fbf 62a7 b43c 3b6b 4bbe
00000320: f37c 23bf 7b7e 53bf 1636 51bd b78b 373f
00000330: 1483 24be 5a3e 62bf 6920 fdbe 154c 803e
00000340: c45a 33bd d736 2d3e 929b 463f bf79 d53e
00000350: 937b 9d3e dd6f 37bf a2fe 98bc 1e9a 21bf
00000360: 902f 313f ea0c f2be 0d26 0dbf 7478 2ebf
00000370: 6dee 15bf 8ef7 27bf 082a 98be 730e 18be
00000380: 6b5b 3d3f 9925 11bf eba0 fdbd fb5b 483f
00000390: 93ac fbbe 4986 803e 280d c2bd 3147 65be
000003a0: ac49 633f 742f 5d3e 4928 03bf 3ad2 533f
000003b0: f0a5 e83d 2fef 013f 601b 87bd 18fa 823f
000003c0: ac8f ae3e 2f16 913e b4de 053f 373d ae3e
000003d0: c85b cc3d df20 da3e 6057 4ebf ec88 173f
000003e0: 2e5b a2bd 666d 1dbe 4ee6 f6be c3c3 2bbf
000003f0: 9816 4abf b0f1 c03e c13c 2bbf 7c94 47bf
