KD_LR/latent/yahooR3/combine_iB_BiasedMF_10.npy (npy, 4128 bytes, 1 tensors)

array f4 [1000]
0	0x3e0d744b	0.13813893
1	0x3e01df8a	0.1268293
2	0x3e335a5c	0.17514938
3	0xbe20b9de	-0.15695903
4	0xbe74e525	-0.23915537
5	0xbe5eda12	-0.21762875
6	0xbeda5e85	-0.42650238
7	0xbeab1428	-0.33413815
8	0xbe9e1d8b	-0.30881914
9	0xbe1007d1	-0.14065482
10	0xbd191cfa	-0.03738115
11	0xbde5d705	-0.11222652
12	0xbea32da4	-0.3187076
13	0x3d4db7eb	0.050224226
14	0xbeb4b13d	-0.35291472
15	0xbdfc508e	-0.12320052
16	0xbe4edf62	-0.20202401
17	0xbe25c8dc	-0.16189903
18	0xbb584b91	-0.0033004025
19	0x3eb4846d	0.35257283
20	0xbca42989	-0.020039337
21	0xbda9ff01	-0.08300591
22	0xbd9020f1	-0.07037533
23	0xbe8bd32d	-0.27309552
24	0x3d5b6c98	0.05357036
25	0xbf048a77	-0.5177378
26	0x3e346a42	0.17618659
27	0xbebe853c	-0.37211025
28	0x3b62804a	0.003456133
29	0xbd93145f	-0.0718162
30	0xbebdff32	-0.3710876
31	0xbef550bb	-0.47913155
32	0xbe27decc	-0.16393584
33	0xbe7e0bae	-0.24809143
34	0xbd9673db	-0.073463164
35	0x3dfc648d	0.12323866
36	0x3ec7c514	0.39017546
37	0x3eba4833	0.3638321
38	0xbeacf2d8	-0.33779025
39	0xbda96c30	-0.08272588
40	0xbe63f42b	-0.22261111
41	0xbefeee78	-0.49791312
42	0xbe3882a7	-0.1801859
43	0xbe1d430d	-0.15357609
44	0xbf13528b	-0.57547826
45	0xbeb74760	-0.35796642
46	0xbd8be07e	-0.06829928
47	0xbf0b5fcf	-0.5444307
48	0xbe52483a	-0.20535365
49	0xbe175098	-0.14776838
50	0xbec403bb	-0.38284096
51	0xbe7699f6	-0.24082169
52	0xbe4200af	-0.18945573
53	0x3e1d4414	0.15358001
54	0xbe8a7630	-0.27043295
55	0xbcccfba5	-0.025022337
56	0xbea948e1	-0.33063415
57	0x3d2be3c8	0.041965276
58	0xbec87d0c	-0.39157903
59	0xbec05575	-0.375652
60	0xbe8630ab	-0.26209006
61	0xbdbb45a4	-0.09144142
62	0xbe4290d2	-0.19000557
63	0xbe9a85c6	-0.30180186
64	0xbec1799b	-0.3778809
65	0xbf0f40e9	-0.5595842
66	0xbe89282f	-0.2678847
67	0xbe8ba03a	-0.2727068
68	0x3d83b503	0.064310096
69	0xbd9b877b	-0.075942
70	0xbe8d4c66	-0.2759735
71	0xbf037c83	-0.51361865
72	0xbf135def	-0.57565206
73	0xbe94c3e4	-0.29055703
74	0xbede4ff9	-0.4342039
75	0xbe90ae95	-0.28258196
76	0xbe642367	-0.2227913
77	0x3dafd3f4	0.08585349
78	0xbe5c301d	-0.21502729
79	0xbd01c5ae	-0.031682663
80	0xbef3c0f3	-0.47608146
81	0xbe3114a0	-0.17293024
82	0xbf075dea	-0.52877676
83	0xbeaaec5a	-0.33383447
84	0x3d71a2a0	0.058992982
85	0x3eb48f51	0.35265592
86	0xbeed3544	-0.463297
87	0xbe8aa67b	-0.2708014
88	0x3e3f677f	0.18691824
89	0xbe1f9704	-0.15584952
90	0xbe8c854c	-0.27445447
91	0xbf030997	-0.5118651
92	0x3d407c13	0.046993326
93	0xbe1bb19f	-0.15204476
94	0xbec222ee	-0.37917274
95	0xbe8c23e5	-0.27371135
96	0xbf24f379	-0.6443401
97	0xbea174d9	-0.3153446
98	0xbe6dd769	-0.23226704
99	0xbe91a96d	-0.28449574
100	0xbcc45427	-0.023965908
101	0xbeb05049	-0.34436253
102	0xbeecb03f	-0.46228215
103	0xbed6c3cc	-0.41946256
104	0xbd0694bc	-0.032856688
105	0xbe919d65	-0.28440395
106	0xbd877f60	-0.06616092
107	0xbeabcfef	-0.33557078
108	0xbe99c285	-0.3003122
109	0x3e48bfd4	0.19604427
110	0xbdd04cea	-0.1017092
111	0xbea44a1e	-0.32087797
112	0x3bd6bf0f	0.0065535377
113	0xbec1fd20	-0.37888432
114	0x3d8a2404	0.06745151
115	0xbeffd176	-0.49964494
116	0x3db879e6	0.09007625
117	0xbeefd73f	-0.46843907
118	0x3d970aaf	0.073750846
119	0xbe9b5e3a	-0.30345327
120	0x3ddb66ac	0.107129425
121	0xbe1b11b7	-0.15143476
122	0x3b2bed2c	0.0026233895
123	0xbe58abe0	-0.21159315
124	0x3d12026f	0.035646852
125	0xbd988b65	-0.074484624
126	0x3e17ee89	0.14837088
127	0x3e1ce2b3	0.15320854
128	0xbeb03418	-0.34414744
129	0x3c76b285	0.015057211
130	0xbdab99c5	-0.083789386
131	0xbeba1c94	-0.36349928
132	0xbe8141b4	-0.2524544
133	0x3d8740fd	0.066041924
134	0xbe09ccea	-0.13457075
135	0xbe53a13e	-0.20666978
136	0x3d724eb4	0.05915709
137	0xbeba8d5c	-0.36435974
138	0xbe9f73d5	-0.3114306
139	0xbe98f5f5	-0.2987515
140	0xbe3239a3	-0.17404799
141	0xbe39dcd1	-0.18150641
142	0xbec8e3bf	-0.39236256
143	0xbd18f6b3	-0.037344646
144	0xbe6ac8cd	-0.22928162
145	0xbead9c10	-0.3390813
146	0xbe8ddf91	-0.2770963
147	0xbe02b0c5	-0.12762745
148	0x3e03bd8c	0.12865275
149	0x3e0e50bf	0.1389799
150	0xbe05a2e1	-0.13050415
151	0xbdf96d23	-0.12179019
152	0x3e0ace94	0.13555366
153	0xbe78cff7	-0.24298082
154	0xbe282372	-0.16419771
155	0xbec9406f	-0.3930697
156	0xbe8f1a38	-0.2794969
157	0x3e12fd3a	0.14354411
158	0x3e07a334	0.13245851
159	0xbec26e1f	-0.3797464
160	0xbe8520f4	-0.26001704
161	0xbd842a80	-0.06453419
162	0xbe5167b8	-0.20449722
163	0x3b33a356	0.0027410588
164	0x3ea046fd	0.3130416
165	0xbed2c74c	-0.41167676
166	0xbed9f2a7	-0.42567942
167	0xbe84f6ea	-0.2596963
168	0xbd2b286d	-0.0417866
169	0x3c6f638c	0.014611136
170	0xbe93d49f	-0.28873155
171	0xbeef49a8	-0.46735883
172	0xbe888ecb	-0.26671442
173	0xbd7cffc5	-0.06176736
174	0xbd8ea572	-0.0696515
175	0xbd79a4b9	-0.060948107
176	0xbe0916cd	-0.13387604
177	0xbe7e9d50	-0.24864697
178	0xbe846ac3	-0.25862703
179	0xbd1c5954	-0.038171127
180	0x3e02b4e3	0.12764315
181	0xbde6a626	-0.11262159
182	0xbe9ad3f1	-0.30239823
183	0x3e6e6c4b	0.23283498
184	0xbdca59fa	-0.09880443
185	0x3d08d03d	0.033401717
186	0xbc081fbb	-0.008308346
187	0x3ddc1f79	0.107481904
188	0xbeff7981	-0.49897388
189	0xbe9b4906	-0.3032915
190	0xbebb84fa	-0.3662489
191	0xbf0268a8	-0.5094094
192	0xbe02d259	-0.12775554
193	0x3e47aa00	0.19498444
194	0xbea54a43	-0.3228322
195	0x3dc3b7a1	0.09556509
196	0xbde49f32	-0.111631766
197	0xbedf6baa	-0.4363683
198	0xbe885afe	-0.26631922
199	0xbeb060e1	-0.34448913
200	0xbeb54e8c	-0.3541149
201	0xbe82a257	-0.2551448
202	0xbe149f32	-0.14513853
203	0xbe546202	-0.20740512
204	0xbe7f05c9	-0.2490455
205	0x3c360e4a	0.011111805
206	0xbf0f329b	-0.5593659
207	0xbe73fe9d	-0.23827596
208	0xbe2716c1	-0.16317274
209	0xbe17610e	-0.14783117
210	0xbf0a8e1c	-0.5412309
211	0xbc8421db	-0.016129425
212	0xbe94da93	-0.2907301
213	0xbf0ebb0c	-0.5575416
214	0xbe29bcfe	-0.16576001
215	0xbf03b80c	-0.5145271
216	0xbec58a06	-0.38581866
217	0xbecfd2e5	-0.40590587
218	0x3d536386	0.051608585
219	0xbe229cfd	-0.15880199
220	0xbe96d757	-0.29461166
221	0xbcbe07df	-0.023197113
222	0xbdd8bb4e	-0.105826005
223	0x3ea54ac5	0.32283607
224	0xbf000146	-0.50001943
225	0x3f062ccb	0.524121
226	0xbeca3cdd	-0.3949956
227	0xbec373ad	-0.3817419
228	0xbdf824a0	-0.12116361
229	0xbe26e8ff	-0.16299818
230	0xbdd34ddd	-0.103175856
231	0xbec216ea	-0.37908107
232	0xbe9d5737	-0.30730602
233	0xbec67970	-0.38764524
234	0x3d372d94	0.0447212
235	0xbe41ab79	-0.18913068
236	0xbedfea7b	-0.43733582
237	0xbea98ccc	-0.33115232
238	0xbece5dcd	-0.4030594
239	0xbebfc4a1	-0.37454703
240	0xbe92a8a8	-0.286443
241	0xbebeb855	-0.3725001
242	0xbdc10dd9	-0.09426469
243	0xbe50e89b	-0.20401232
244	0xbd314894	-0.043282107
245	0x3ea2f096	0.31824178
246	0xbf07c537	-0.530353
247	0xbeb207be	-0.34771532
248	0x3cd27a05	0.02569295
249	0xbe79b097	-0.2438377
250	0xbf0df695	-0.5545438
251	0x3e1e4e8a	0.15459648
252	0xbe788c15	-0.24272187
253	0xbdc1bc3b	-0.0945973
254	0x3c70a4fe	0.014687775
255	0xbb0ddc4e	-0.0021646204
