KD_LR/latent/yahooR3/iB_BiasedMF_10.npy (npy, 4128 bytes, 1 tensors)

array f4 [1000]
000000 cd 8b 00 3e 3b c4 14 3e 65 f5 46 3e cc bc 23 be
       0.1255333 0.14527981 0.19429548 -0.15989989
000010 e0 68 32 be a0 31 4d be 63 44 e0 be aa be a5 be
       -0.17422819 -0.20038462 -0.43802175 -0.32372028
000020 60 ed 9d be bf 42 03 be 0c 83 1d bd b7 da f7 bd
       -0.30845165 -0.1281843 -0.038455054 -0.121022634
000030 36 1b 89 be d2 f1 6f 3d 05 1d b0 be 37 35 da bd
       -0.26778573 0.058580227 -0.3439714 -0.10654681
000040 a3 99 54 be b9 54 22 be 13 c3 60 bb 7e 9d e5 3e
       -0.20761733 -0.15852632 -0.003429596 0.4484672
000050 9a 37 82 bb ae 3e 5d bd 02 bd 86 bd b0 62 79 be
       -0.0039739134 -0.054014854 -0.06579019 -0.24354053
000060 be 17 9c 3d 1e 88 02 bf b8 1d 45 3e 34 fe bc be
       0.07621716 -0.5098895 0.19249618 -0.36912692
000070 cc f8 0b 3b e9 60 98 bd 04 68 be be 58 11 f5 be
       0.0021358011 -0.07440359 -0.37188733 -0.47864795
000080 f0 d2 18 be 40 cb 70 be 9a e9 b7 bd 7d 42 05 3e
       -0.14924216 -0.23515034 -0.08980103 0.13013645
000090 bf ba ce 3e cd bb b6 3e 16 b5 a8 be 0e 69 bc bd
       0.4037685 0.35690156 -0.32950658 -0.09199725
0000a0 9c 1f 6a be 12 71 04 bf 4c b0 34 be db 4e 21 be
       -0.2286362 -0.5173503 -0.17645377 -0.15752737
0000b0 ee ae 14 bf db e1 bd be 41 2b 3e bd 1b 8c 0f bf
       -0.5807942 -0.37086377 -0.04642797 -0.5607316
0000c0 59 28 51 be 74 d3 0f be 28 9b c6 be 06 e8 82 be
       -0.20425548 -0.14045507 -0.3879025 -0.25567645
0000d0 e4 77 39 be 8e 01 2c 3e 01 d4 68 be 12 b8 20 bd
       -0.18112141 0.16797468 -0.22737123 -0.039238043
0000e0 b7 18 9e be 59 29 47 3d 3c 0f c3 be ec 07 bc be
       -0.3087823 0.048623417 -0.3809756 -0.36724794
0000f0 6c bf 63 be 9a d6 bd bd 32 a1 3d be 46 a8 98 be
       -0.2224099 -0.092694476 -0.18518522 -0.29815882
000100 17 73 c1 be 06 d5 10 bf 92 95 7d be 64 a2 8d be
       -0.3778312 -0.5657505 -0.24764088 -0.27662957
000110 b7 a8 c4 3d fe 8e 5c bd 92 b7 8d be 13 aa 01 bf
       0.09602492 -0.053847305 -0.27679116 -0.5065014
000120 ef 7d 13 bf da 1b 93 be 79 03 da be fe 14 8c be
       -0.57614034 -0.28732187 -0.42580774 -0.27359766
000130 92 30 52 be f1 f8 b5 3d 99 62 52 be 6d 66 9a bc
       -0.2052634 0.088853724 -0.20545425 -0.018847669
000140 25 7f ef be 96 59 2c be 28 4b 06 bf 93 36 9d be
       -0.4677669 -0.1683105 -0.5245843 -0.307057
000150 6d 81 03 3e d9 15 b6 3e 91 0c ed be ec 4d 88 be
       0.12842341 0.35563543 -0.4629865 -0.2662195
000160 06 ae 53 3e 85 17 1d be b5 a4 8c be 12 66 03 bf
       0.20671853 -0.15341003 -0.27469411 -0.5132762
000170 6c 06 53 3d 26 f0 12 be 00 1b c0 be 38 dd 8b be
       0.051519796 -0.14349422 -0.375206 -0.27317214
000180 46 10 0f bf ae 5b a9 be ab 4a 67 be 28 b8 8b be
       -0.55884206 -0.3307776 -0.22587077 -0.27288938
000190 7a ec db bc 9d d6 ae be 01 57 e7 be 36 bc d8 be
       -0.02684616 -0.34148112 -0.45183566 -0.42331094
0001a0 9b a5 f0 bc 88 13 88 be 4b a5 57 bd e7 28 a9 be
       -0.029375842 -0.265774 -0.05264787 -0.3303902
0001b0 7f 97 94 be 30 9d 4b 3e 1b b2 c5 bd 2a bd 9a be
       -0.29021832 0.19884181 -0.096531115 -0.30222446
0001c0 57 31 52 3d cd 9d c0 be de 97 92 3d 2f 0f 02 bf
       0.051316585 -0.37620392 0.071578726 -0.5080442
0001d0 5e 99 d8 3d 42 3a ec be 1e 7e 56 3d 98 93 97 be
       0.105761275 -0.46138197 0.05236637 -0.29604793
0001e0 39 6f e1 3d e0 71 1c be ce e2 57 3c 76 27 46 be
       0.11007542 -0.15277815 0.013176633 -0.1935099
0001f0 2d b9 2e 3d 60 91 85 bd 5f 79 1b 3e 7a 4c 4b 3e
       0.042657066 -0.06521869 0.15183018 0.19853392
000200 fb 26 aa be cb 1a 49 3c 91 08 c2 bd e9 d6 b9 be
       -0.33232865 0.012274454 -0.0947429 -0.36296776
000210 f0 ba 54 be d6 f9 e5 3d 4f 7f 09 be 74 40 46 be
       -0.20774436 0.11229293 -0.1342747 -0.19360524
000220 42 e8 c6 3d 09 5b b2 be ce 27 98 be 73 74 8f be
       0.097122684 -0.3483508 -0.2971787 -0.2801853
000230 e5 a5 0c be a6 0c 35 be 8f 6c bf be d4 2f 86 bb
       -0.13735159 -0.17680606 -0.3738751 -0.004095057
000240 91 27 3e be db ac ac be 5c f0 88 be ae df 07 be
       -0.18569781 -0.33725628 -0.2674588 -0.13268921
000250 21 6d 06 3e 7c b3 24 3e 21 21 0c be f0 fd f9 bd
       0.13127567 0.16084093 -0.13684513 -0.12206638
000260 06 50 e7 3d 84 84 77 be e1 57 25 be d5 eb c5 be
       0.1129456 -0.24171644 -0.16146804 -0.38656488
000270 61 92 89 be db 89 0b 3e 8b fa 16 3e 01 a7 a6 be
       -0.2686949 0.13626806 0.14744012 -0.3254929
000280 c4 66 80 be 55 71 7f bd a8 e5 4b be 04 e3 27 3c
       -0.25078404 -0.06236394 -0.19911826 0.010246996
000290 4d 1d a3 3e 01 5a cc be e5 8d d7 be 35 1d 76 be
       0.31858292 -0.39912418 -0.42100444 -0.24034579
0002a0 4c b4 09 bd 9c 37 a4 3c 0c 7b 95 be e0 d7 ea be
       -0.03361921 0.020046048 -0.2919544 -0.45867825
0002b0 81 0c 8e be 90 91 f7 bc ce 12 35 bd c5 ff 10 bd
       -0.27743915 -0.030220777 -0.044207387 -0.03540017
0002c0 d6 33 fc bd fb 48 72 be d8 6b 6f be a5 ee ea bc
       -0.123145744 -0.23660652 -0.23380983 -0.028678248
0002d0 5f 19 0d 3e 1c 35 d4 bd 71 6b 92 be ac a6 6e 3e
       0.1377921 -0.10361692 -0.28597596 0.23305768
0002e0 c7 d0 96 bd 15 78 48 3d 94 6c 68 3b 6c 79 e9 3d
       -0.0736404 0.048942644 0.0035465108 0.114001125
0002f0 10 c1 02 bf b8 e1 96 be b1 0b b4 be 64 55 02 bf
       -0.5107584 -0.29469085 -0.3516517 -0.50911546
000300 c8 72 01 be 1b 92 47 3e a2 ff a1 be 95 36 c3 3d
       -0.12641442 0.19489329 -0.31640345 0.09531895
000310 41 53 c0 bd 8c 0c e7 be fd f3 82 be 76 35 ac be
       -0.093908794 -0.4512676 -0.25576773 -0.33634537
000320 31 ce ac be 45 17 77 be 9e 8e 15 be 3b 4c 5c be
       -0.33751062 -0.2412997 -0.14605185 -0.21513455
000330 cb 6f 77 be c6 94 71 3c 72 54 0e bf 50 26 6f be
       -0.2416374 0.014744943 -0.55597603 -0.23354459
000340 2c c7 31 be e5 86 11 be b1 30 0d bf 6c e5 dd bb
       -0.17361134 -0.14211614 -0.5515242 -0.006771734
000350 01 bb 97 be f5 3c 0d bf 35 b7 28 be dd 0b 04 bf
       -0.2963486 -0.5517114 -0.16476138 -0.515806
000360 c0 46 b5 be cf 62 cf be 77 dc 48 3d d6 7a 0c be
       -0.3540554 -0.40505072 0.049038377 -0.13718733
000370 94 f4 86 be 60 b8 c0 ba 25 67 ac bd 2a 87 cf 3e
       -0.26358473 -0.0014703386 -0.08418111 0.4053281
000380 25 32 ff be 9e 64 1b 3f 8b 63 c9 be 2d 2e c4 be
       -0.49842945 0.60700405 -0.39333758 -0.3831648
000390 d6 25 e1 bd 10 24 25 be 45 f6 c7 bd 31 bd be be
       -0.10993545 -0.16127038 -0.09763769 -0.37253717
0003a0 8b a8 9a be c9 f9 c4 be d6 50 1a 3d 87 57 36 be
       -0.30206713 -0.3847182 0.037674747 -0.17806827
0003b0 34 d7 e1 be 86 e7 a6 be 47 b2 c8 be 63 23 b9 be
       -0.441095 -0.32598513 -0.39198515 -0.3615981
0003c0 16 40 94 be 60 24 c0 be 9c 84 ca bd ef bf 5a be
       -0.28955144 -0.37527752 -0.098885745 -0.2136228
0003d0 9b 4e 44 bc cf c6 a0 3e c4 18 03 bf cf c0 ab be
       -0.011981632 0.3140168 -0.51209664 -0.3354554
0003e0 cd 78 ed 3c c0 3f 7f be 0b 47 0b bf 1d c7 15 3e
       0.028988266 -0.24926662 -0.5440528 0.14626737
0003f0 bf 92 77 be 94 b8 b8 bd 11 95 b4 3c 61 a2 de 3c
       -0.24177073 -0.090195805 0.022043737 0.027177038
