KD_LR/latent/yahooR3/U_BiasedMF_10.npy (npy, 616128 bytes, 1 tensors)

array f4 [15400, 10]
3.0810966e-06 -3.4479408e-06 -6.679811e-06 -1.926458e-06 1.7161387e-06 -1.002182e-06 8.158129e-06 3.053082e-08
9.079388e-06 2.1269427e-06 6.3778873e-07 2.056176e-06 9.141065e-07 9.70678e-07 -2.8790902e-07 5.101351e-07
1.1865169e-06 3.465194e-08 -1.3606393e-07 -7.4391744e-07 -1.5804376e-06 9.552519e-06 -1.5524764e-05 -1.0664958e-06
1.44616515e-05 -7.724326e-06 -6.0430966e-06 -3.0469557e-06 6.8405425e-06 8.7722356e-07 -2.455329e-07 -7.7430735e-07
-2.1388422e-07 1.4549234e-06 -2.2163088e-06 -3.0163716e-07 -7.0984703e-07 -4.0311437e-07 5.0948483e-07 -8.5179573e-07
1.1999182e-06 5.3940657e-06 2.962775e-06 4.0005443e-07 -5.857081e-07 -3.098291e-06 -2.770877e-06 -3.683552e-06
-3.745089e-06 2.5999504e-06 -5.4235466e-06 4.2357246e-06 -1.1442411e-05 1.0502922e-06 5.7699913e-06 2.852687e-09
-2.1693463e-06 -6.944587e-06 -1.9772585e-08 -1.8862384e-06 -2.7350252e-05 -5.095093e-06 -9.53729e-06 1.4856738e-05
3.861168e-05 -1.9611507e-06 -2.5614372e-06 7.551136e-06 -1.5352525e-05 1.5862817e-05 -3.3819715e-06 1.5797092e-05
-4.193832e-06 -9.839487e-07 -7.1093773e-06 -9.7974e-07 -1.276182e-06 1.3038793e-06 -7.2317266e-07 3.4391178e-08
-3.92294e-07 -4.0574373e-06 -1.2582171e-07 -7.715742e-06 -5.3698127e-06 -1.6069799e-06 -3.2428195e-06 2.0766834e-06
1.0559917e-06 8.866216e-06 6.6577445e-06 -1.0409979e-06 2.7316069e-06 6.334985e-07 5.160156e-06 -2.0517948e-06
3.9783322e-07 -7.0001306e-07 -3.779141e-07 2.739549e-06 -2.5389334e-06 1.0830847e-06 8.434499e-06 1.4462703e-05
9.013859e-06 1.875444e-06 6.2900194e-06 -1.1755191e-06 -1.7342842e-06 6.3670595e-06 2.048664e-06 -9.2512937e-07
2.7819465e-06 7.785599e-06 2.553897e-06 2.0236475e-06 5.089737e-06 1.3697044e-05 -4.848752e-06 -3.1812967e-06
-2.779928e-07 3.4117577e-06 -1.5883468e-06 1.9050642e-06 -5.7597963e-06 -2.5576817e-06 -6.397772e-06 2.6285466e-06
5.5466007e-06 -1.483402e-06 -2.770968e-06 1.1567118e-06 -2.3915745e-06 -2.3805087e-06 3.090754e-06 -3.7252107e-06
-5.214341e-07 -3.1821608e-07 -5.011652e-07 -3.905193e-06 -8.952484e-06 -1.8946566e-06 -5.4785037e-06 -2.9343023e-06
4.152013e-06 -1.2925459e-06 6.236737e-07 4.7574318e-07 3.535829e-07 -2.038198e-06 -1.3799038e-06 -4.2406077e-06
4.1237977e-06 -2.6005944e-06 4.867676e-07 1.7412998e-06 -2.9030368e-06 3.4439172e-06 -3.4778727e-06 -1.5494234e-06
-1.10098185e-07 -3.2566753e-08 1.0925943e-06 2.9658332e-07 -1.05404425e-07 5.5466234e-07 -1.2253527e-06 4.1221966e-07
3.2013272e-08 -3.517702e-07 -1.1037273e-06 3.2035555e-06 -3.793692e-06 -6.529042e-07 1.4898108e-06 -1.9366921e-06
-6.878571e-07 -6.4734313e-06 1.9465342e-06 1.0227003e-06 -1.521943e-06 8.6691347e-07 3.9606807e-06 -2.6995144e-07
-2.502609e-07 9.723914e-07 2.5315474e-06 -2.0591647e-06 9.4420955e-07 4.5346275e-07 -2.6776502e-07 4.043215e-06
-1.6866827e-06 -1.4711215e-06 4.0035256e-06 -2.0001448e-06 5.3074627e-06 6.0788816e-06 6.222713e-06 2.6077032e-06
4.0731898e-06 -1.0604292e-05 -2.183752e-06 1.606237e-06 2.333617e-06 -1.6222725e-07 -3.9718657e-06 1.8757889e-06
1.0676147e-06 5.485043e-08 1.1195152e-06 8.146287e-07 4.6476845e-07 4.922576e-08 1.2156806e-07 4.705812e-06
-3.1103787e-07 -3.4123443e-07 -1.9768568e-06 -2.6754037e-06 4.167028e-06 -6.898131e-08 -3.17483e-06 -3.477794e-07
2.7007604e-07 -3.453444e-07 -2.1149908e-06 2.0778043e-06 -1.2403065e-05 1.6092201e-06 -4.7802314e-07 -1.0922669e-06
6.6062926e-06 1.5700778e-06 -4.077025e-06 1.9704207e-06 -2.6035955e-06 1.0758545e-06 -1.7286588e-06 -5.7422376e-06
1.4429713e-06 6.007389e-06 1.4605157e-06 1.7795516e-06 6.429991e-07 -1.08297115e-07 -1.2233668e-06 -2.4018225e-06
-8.0846075e-06 2.325175e-06 4.806058e-06 -1.6192796e-06 -1.1190527e-06 7.097971e-07 5.4207558e-06 2.324911e-06
00000000: d6c4 4e36 2c63 67b6 2423 e0b6 4c48 01b6
00000010: 1456 e635 b682 86b5 e6de 0837 fe20 0333
00000020: ad53 1837 99bc 0e36 8234 2b35 d6fc 0936
00000030: ec60 7535 3e48 8235 ea91 9ab4 38f0 0835
00000040: 6940 9f35 36d4 1433 f818 12b4 9eb1 47b5
00000050: 6c1f d4b5 c243 2037 2d3b 82b7 8424 8fb5
00000060: 52a0 7237 ba97 01b7 cec5 cab6 4d7a 4cb6
00000070: d087 e536 587a 6b35 c9d1 83b4 ffd9 4fb5
00000080: 0ca8 65b4 ca46 c335 e5bb 14b6 b2f0 a1b4
00000090: 518c 3eb5 9e6b d8b4 88c3 0835 f5a6 64b5
000000a0: e00c a135 acfe b436 16d4 4636 10c7 d634
000000b0: 8e39 1db5 3cec 4fb6 4ef3 39b6 f132 77b6
000000c0: 2454 7bb6 cf7a 2e36 e9fb b5b6 9920 8e36
000000d0: c8f8 3fb7 c4f7 8c35 d99b c136 0009 4431
000000e0: 1695 11b6 8c05 e9b6 60d8 a9b2 a82a fdb5
000000f0: 386e e5b7 84f6 aab6 5902 20b7 3441 7937
00000100: faf2 2138 509c 03b6 28e5 2bb6 c45f fd36
00000110: 4cc9 80b7 2411 8537 d4f5 62b6 ff83 8437
00000120: beb8 8cb6 3810 84b5 168d eeb6 9c7f 83b5
00000130: 4849 abb5 f400 af35 0c20 42b5 80b5 1333
00000140: 7a9c d2b4 1f25 88b6 9c19 07b4 dc72 01b7
00000150: 572e b4b6 69af d7b5 379f 59b6 265d 0b36
00000160: 99bb 8d35 1cc0 1437 9765 df36 6ab8 8bb5
00000170: a650 3736 af0d 2a35 6725 ad36 91b1 09b6
00000180: c895 d534 88e8 3bb5 1ee4 cab4 18d9 3736
00000190: 8b62 2ab6 825e 9135 e681 0d37 d6a4 7237
000001a0: 3b3a 1737 c4b7 fb35 db0e d336 87c6 9db5
000001b0: 8dc5 e8b5 a0a4 d536 c87b 0936 6856 78b5
000001c0: 7ab1 3a36 e59e 0237 9e63 2b36 00ce 0736
000001d0: 82c8 aa36 5bcc 6537 76b2 a2b6 437e 55b6
000001e0: 0a3f 95b4 8df5 6436 2e2f d5b5 82b1 ff35
000001f0: 4644 c1b6 a3a4 2bb6 71ac d6b6 1666 3036
00000200: f01c ba36 4e19 c7b5 def4 39b6 5140 9b35
00000210: f07e 20b6 d4c0 1fb6 c06a 4f36 a2fe 79b6
00000220: aef8 0bb5 49d7 aab4 cf87 06b5 5a09 83b6
00000230: a032 16b7 e84b feb5 fdd3 b7b6 eeea 44b6
00000240: 8551 8b36 8a7b adb5 886a 2735 a569 ff34
00000250: 10d4 bd34 fac7 08b6 2235 b9b5 8b4a 8eb6
00000260: 275f 8a36 df85 2eb6 6aaa 0235 9bb6 e935
00000270: cbd1 42b6 0c1e 6736 6665 69b6 c8f5 cfb5
00000280: 1e6f ecb3 86df 0bb3 41a5 9235 1a3a 9f34
00000290: b25a e2b3 1be4 1435 cc76 a4b5 0a4f dd34
000002a0: f77e 0933 eeda bcb4 c823 94b5 aafc 5636
000002b0: 2297 7eb6 3c43 2fb5 82f5 c735 1ef8 01b6
000002c0: 2ea5 38b5 5a36 d9b6 34a1 0236 b743 8935
000002d0: 9045 ccb5 d7b5 6835 fde5 8436 d8ed 90b4
000002e0: 995b 86b4 1d83 8235 a7e3 2936 2e30 0ab6
000002f0: 9675 7d35 7273 f334 58c1 8fb4 f4aa 8736
00000300: fa61 e2b5 5a73 c5b5 0656 8636 3a3a 06b6
00000310: c216 b236 32f9 cb36 b3cc d036 0000 2f36
00000320: 6fac 8836 16e9 31b7 938c 12b6 e295 d735
00000330: 3c9b 1c36 b030 2eb4 1146 85b6 9ec3 fb35
00000340: f64a 8f35 b094 6b33 4042 9635 dcac 5a35
00000350: 4a85 f934 4c6c 5333 6088 0234 9ee6 9d36
00000360: b8fc a6b4 e732 b7b4 24aa 04b6 168b 33b6
00000370: 7fd2 8b36 e022 94b3 2a0f 55b6 70b6 bab4
00000380: f8fe 9034 c667 b9b4 44ef 0db6 6870 0b36
00000390: c216 50b7 62fc d735 8051 00b5 019a 92b5
000003a0: 9fab dd36 76bb d235 61cd 88b6 923b 0436
000003b0: 6eb9 2eb6 1466 9035 4404 e8b5 72ad c0b6
000003c0: 1eac c135 1493 c936 f006 c435 edd8 ee35
000003d0: 909a 2c35 f890 e8b3 9032 a4b5 ff2e 21b6
000003e0: 20a3 07b7 340a 1c36 b943 a136 0656 d9b5
000003f0: 5c32 96b5 e388 3e35 f0e3 b536 ab05 1c36
