KD_LR/latent/yahooR3/uB_BiasedMF_10.npy (npy, 61728 bytes, 1 tensors)

array f4 [15400]
00000000: daed b23d 3d4b 723f 7167 51be 3fdb 39bf
00000010: 0490 7fbe a75b da3e e566 1bbf b251 16be
00000020: 8ce3 02bf 5747 ac3e 624f 47bf f04f 69bc
00000030: f9a5 3c3f 837a a4bd b2f6 053f a41f 163f
00000040: d2bb 29bf c442 263e 5813 783e 0893 26be
00000050: 0731 16bf bb88 31bf 0a24 c63e 322b 7ebe
00000060: 2c46 c03e a6d8 863c d356 523e 2fc5 8d3f
00000070: 3b92 6ebe ff05 1c3f fe9e 7bbe 153d 9e3e
00000080: 57e6 12be c941 e6bd 8b37 04bf 11ef fabc
00000090: edf3 c5be dba8 6fbe 9cd4 3cbf 59a6 bebe
000000a0: 1983 36bf adb6 07bf 0619 923e c123 8fbd
000000b0: 457d 47bf ec1a 343f a969 4dbf 9c32 41bf
000000c0: 925c 253e e427 be3e d0c8 2bbf 1bb8 bebe
000000d0: 7ad4 54be c438 123e e070 113e 4088 64bf
000000e0: 666d 80be 3db2 a33d 2a9d 07bf bf66 44bf
000000f0: f2ac 193c 3cc9 1ebf 991e 10bd 46f7 5b3f
00000100: 84e1 85bd 3d8b 8d3f a5e8 56bd 6746 4abd
00000110: 530f 893f e418 a0be a946 da3d 6671 abbe
00000120: 536f 8a3e 61bc 9ebe 16e6 453e 11f1 20be
00000130: f79d 36bd ab16 cd3c 8ee5 d4be 3f1a 2ebf
00000140: eba0 e2be 172e 803e 27b6 fabe 7569 f0bd
00000150: bb8d 94bd 7d9f 4abf c9bc dc3e 8da9 823c
00000160: 14fa 39bf 1c39 9e3e c46e f4bd 0c03 863e
00000170: 4550 c53e 4098 33bf 5640 383f 154c 25bf
00000180: 4b9b 22bf 99b4 fabe b3fa 17bf 39f6 943e
00000190: 27a0 2dbd ee76 fdbd 42b7 f1be 7958 cd3d
000001a0: 5617 73be 9805 19be 8436 503f c0f3 efbe
000001b0: 6ae8 fabe 030b ab3e a673 b73d 78cf 5b3f
000001c0: 3bd1 38bf 8715 3d3d bd97 51bf 776b ed3e
000001d0: 05bc b2bd 86b8 42bf d986 d23e 5780 18bf
000001e0: 4254 443e bb4a 43be 9c26 5dbd 6110 303d
000001f0: f221 1e3e 8cf8 1dbf ae2e 5cbf c629 c5be
00000200: 6330 973e d3fa 6a3f 561c 24bf 2fb3 c73d
00000210: 6a7f c03e 4ccc e13e 1388 debd c468 0dbf
00000220: 4131 4b3e b043 9d3e 481d 1e3f d505 eabd
00000230: efb9 393f 6d2c ddbe 7d04 47bf 1e44 bc3e
00000240: b20e 3e3f e1c8 2abe 2ed9 d7be a2f7 763e
00000250: aa56 babe f829 9ebe 22c8 193e e88c 823e
00000260: 03db 92be b424 e4be b57d 7abe 6803 94be
00000270: e4e8 c7be 1c71 16bf 6429 873e f6c3 70be
00000280: 15c2 d63d fa32 503e faa8 37be f7be 41be
00000290: 686b aebd 6a10 21bf 6f39 9f3e 19f0 0dbf
000002a0: c2a3 40bf 3459 453e 7196 2bbf 075a ecbc
000002b0: 43e4 34bf 52d2 7cbe 70e2 e1be 8f45 48be
000002c0: cd2d 903e 3762 1dbf 8641 2fbf 045e 05bf
000002d0: 043c 47bf 2049 81be ffd3 dfbe 0e68 01bf
000002e0: 04f7 823e 43ec 03bf 1bff ddbe 4b6a 13be
000002f0: a47c 653f 6bed 26bf 047d 2a3f 7dd7 eb3e
00000300: 5463 093d 81c8 38bd d70d 463f 9eae a1be
00000310: 6112 fbbc bd85 4bbf 202f bb3c 547a 0ebe
00000320: c3c7 4bbf 5f4a 4bbf e5ad e3bc fbfb 2e3f
00000330: bdee f8bd 608c 5fbf f5ce edbe 0820 793e
00000340: f4c7 b63d d80f 233e bfdd 3e3f 88c1 cb3e
00000350: ffad cc3e b64f 2bbf f9dc a0bc 37bf 1fbf
00000360: ab36 4a3f 7a5d e9be fda0 07bf 60aa 29bf
00000370: 3c96 13bf 6bc8 19bf 5ebd 8abe 63a5 13be
00000380: 5619 343f 1fd5 0cbf 62ce f5bd 741f 3f3f
00000390: 0437 f0be 6ce8 753e bf79 74bd 6822 63be
000003a0: a413 743f b88d 6f3e 26e8 34bf bb12 4f3f
000003b0: 6002 e43d a7c1 0e3f f7f4 eaba e454 823f
000003c0: f175 a63e 332f cf3e 6d5d ff3e 995c a83e
000003d0: 2824 c13d a016 af3e 0a96 48bf 07a9 133f
000003e0: 3d72 a4bd 54f0 b8bd d979 f3be 46ca 26bf
000003f0: 0440 40bf ad38 e13e 908d 2dbf aeae 46bf
0.08736773 0.94646055 -0.20449616 -0.7260017 -0.24957281 0.4264805 -0.6070388 -0.14679602
-0.5112846 0.33648178 -0.77855504 -0.01424025 0.73690754 -0.0803118 0.5232955 0.5864203
-0.66302216 0.16236407 0.24226129 -0.16267025 -0.5866856 -0.6934926 0.3869937 -0.24821165
0.37553537 0.016460728 0.20540933 1.1075801 -0.2329797 0.6094665 -0.2457237 0.30905977
-0.1434568 -0.11243016 -0.5164725 -0.030631574 -0.38662663 -0.23404257 -0.73761916 -0.37236288
-0.7129379 -0.53013116 0.28534716 -0.069892414 -0.7792552 0.7035358 -0.8023935 -0.7546785
0.16148594 0.3713981 -0.6710329 -0.37249836 -0.20784178 0.14279467 0.14203215 -0.892704
-0.25083464 0.07992981 -0.5297419 -0.7671928 0.009379612 -0.6202581 -0.03518543 0.85924184
-0.06537154 1.1058117 -0.05246796 -0.049383547 1.0707802 -0.3126899 0.106580086 -0.33484954
0.2703806 -0.31003097 0.19326052 -0.1571696 -0.04458424 0.025035223 -0.41581386 -0.680088
-0.44263396 0.25035164 -0.48967096 -0.11738864 -0.072535954 -0.7914961 0.43112782 0.015949989
-0.72647214 0.30902946 -0.11935189 0.261742 0.38537803 -0.7015419 0.7197317 -0.64569217
-0.6351821 -0.4896591 -0.5936691 0.29094103 -0.04238906 -0.123762 -0.47210127 0.100266404
-0.2373937 -0.1494354 0.81333184 -0.46865654 -0.49005443 0.3340684 0.08957605 0.8586345
-0.7219426 0.04616311 -0.8187216 0.46371052 -0.08727268 -0.7606281 0.41118506 -0.5957083
0.19172767 -0.19071476 -0.0539919 0.04298437 0.15442637 -0.6170738 -0.8600873 -0.38508433
0.29529104 0.9178898 -0.6410574 0.097509734 0.3759721 0.4410118 -0.10865798 -0.55237985
0.19843008 0.30715704 0.6176343 -0.114268936 0.7254934 -0.43197957 -0.77741224 0.3677072
0.74241173 -0.16678192 -0.42157882 0.24117902 -0.36394244 -0.30891395 0.15017751 0.25498128
-0.28682718 -0.44559252 -0.24462016 -0.2890885 -0.3904487 -0.5876634 0.26398766 -0.23512253
0.10486237 0.20331946 -0.17935553 -0.18920504 -0.0851658 -0.6291567 0.31098506 -0.55444485
-0.75249875 0.1927231 -0.6702643 -0.028851522 -0.706608 -0.24689606 -0.4411807 -0.19557784
0.28159943 -0.6147799 -0.68459356 -0.5209658 -0.7782595 -0.25251102 -0.43716428 -0.505494
0.25579083 -0.5153238 -0.43358693 -0.14396016 0.8964331 -0.6520602 0.6659701 0.46062842
0.033541992 -0.04511309 0.7736487 -0.31578535 -0.030648412 -0.79500943 0.02284962 -0.13913852
-0.7960169 -0.79410356 -0.02779288 0.6835324 -0.12154911 -0.8732357 -0.46446958 0.24328625
0.08924857 0.15924013 0.7455711 0.3979609 0.39976498 -0.66918504 -0.019636618 -0.62401146
0.78989667 -0.4557913 -0.52980024 -0.66275597 -0.57651114 -0.6007144 -0.270976 -0.14418559
0.7035116 -0.55012697 -0.12002255 0.7465737 -0.46916974 0.24014443 -0.05968642 -0.22181094
0.9534247 0.23393905 -0.7066673 0.80887955 0.111332655 0.5576424 -0.0017925788 1.0182157
0.32511857 0.40465698 0.49875966 0.32883146 0.094307244 0.3419695 -0.7835394 0.5767979
-0.08029602 -0.09030214 -0.475539 -0.65152395 -0.7509768 0.43988553 -0.6779413 -0.7761029
