KD_LR/latent/yahooR3/unif_uB_BiasedMF_10.npy (npy, 61728 bytes, 1 tensors)

array f4 [15400]
0.013778581 -0.34886825 -0.39938793 -0.009204623 0.012682217 -0.35319015 -0.3776318 -0.39666083
-0.39458078 0.013419365 -0.35362747 -0.0004730683 -0.009187392 -0.29227653 -0.012280075 -0.4483209
-0.38783482 -0.013796313 -0.0056273104 0.011933494 -0.4965395 -0.41778043 -0.00063325634 -0.005473552
-0.46117386 -0.0067247455 -0.31350377 0.5995937 -0.00242036 -0.014548176 -0.35278714 -0.46618506
0.0070573506 -0.41026223 0.0049221655 0.012780843 -0.00816747 0.00032180682 0.0037618678 -0.3984682
0.004721952 -0.45752922 -0.4586732 -0.0023123857 0.0036019725 0.62762547 0.006770797 0.012234111
0.017322097 -0.010269553 -0.004867221 -0.3236835 -0.293436 -0.3286769 -0.013609947 -0.31834927
-0.01875281 0.016737664 -0.69124615 -0.017208293 0.013039343 -0.014543075 0.00851383 0.0076465337
0.007795718 0.6481732 -0.004823406 0.003067993 0.6051561 0.007327511 -0.43279114 -0.0119660795
-0.0019007123 -0.39982763 0.0058686426 -0.31453335 0.00066887663 -0.42469692 0.005145996 -0.0023222114
-0.35635513 -0.016530244 -0.010215117 -0.31341356 -0.3386985 0.00081169186 -0.3485163 0.5374341
-0.0002300981 0.0008789698 0.013470367 0.20233902 0.01025199 -0.35767162 -0.23240925 0.007946246
0.0047142794 0.015662912 -0.5331092 0.0002142281 -0.46357474 -0.003472901 -0.0007317788 -0.58092445
0.007412037 -0.00087532797 0.60916406 0.011723722 0.010931765 -0.0039094714 -0.33229607 0.010349616
-0.41162091 -0.45717725 -0.004338464 0.015719138 -0.31429592 0.006236748 -0.26742238 -0.4006491
-0.014898275 -0.0011707257 -0.32636985 0.57258725 -0.0057978258 -0.0030569376 0.010711857 -0.006154917
-0.008603526 -0.31724337 0.0017671364 -0.0027116286 -0.0035113164 0.009514613 0.009236521 -0.2891314
0.0074903253 -0.0047875834 0.003124471 -0.4681991 0.0034912522 -0.36706123 -0.015092256 -0.005961993
0.00028064862 -0.017361341 0.0048365286 -0.009964819 -0.016346155 -0.3391964 0.014968338 -0.55739206
-0.0071055093 -0.01146409 0.016318431 0.0027483494 -0.0011764253 -0.016383043 0.0074057197 -0.28792363
-0.45112455 -0.49030182 -0.0047431234 -0.012831421 -0.34894708 -0.46696633 -0.003697837 0.008686041
0.01140244 -0.0035634204 -0.4604428 -0.3428732 -0.46319598 -0.4657678 -0.008881575 0.006013811
-0.45680934 0.008262581 -0.38842297 -0.00813878 -0.003890511 0.0029784655 -0.27459797 -0.0040567573
-0.31699774 -0.008233705 0.0051293797 -0.35626996 -0.58631355 0.0077034896 0.0013839048 0.002934994
0.015255933 -0.005790097 -0.007895609 -0.32872918 0.008684516 -0.5536824 -0.0009759678 -0.3587059
0.08471492 0.0059542833 -0.38902396 7.950219e-05 -0.36973134 -0.32904524 -0.3314183 -0.003219739
-0.3358509 -0.0118294535 0.0068542943 -0.00042319013 -0.34001085 -0.31675723 0.008870309 -0.51251
-0.35900238 -0.0026673921 -0.29704913 0.001149987 -0.0020056467 -0.29907182 -0.36217934 0.0013072802
-0.0015493586 -0.33719903 -0.0027212903 -0.0039068437 0.0075217276 0.61981744 -0.35335022 -0.0020045151
-0.29599604 -0.3581333 0.45421135 0.018838705 0.012067793 -0.51340157 -0.31356522 0.63398254
-0.007581754 -0.50016594 0.0021451733 0.004229242 -0.013904323 0.65127623 -0.00441404 -0.010126091
0.003566459 -0.34714547 -0.39447376 0.0034985929 -0.010384975 -0.5517302 -0.0033574146 0.010768321
00000000: 8fbf 613c dc9e b2be 937c ccbe fdce 16bc
00000010: 13c9 4f3c 57d5 b4be f558 c1be 2117 cbbe
00000020: 7e06 cabe e5dc 5b3c a90e b5be 2706 f8b9
00000030: b786 16bc 45a5 95be 5e32 49bc 518a e5be
00000040: 4992 c6be ee09 62bc 4d65 b8bb b484 433c
00000050: 6d3a febe 51e7 d5be 1d01 26ba 7b5b b3bb
00000060: fb1e ecbe 415b dcbb 9183 a0be f97e 193f
00000070: e79e 1ebb 795b 6ebc 84a0 b4be cfaf eebe
00000080: 5941 e73b e40d d2be 1e4a a13b be66 513c
00000090: dad0 05bc 2eb8 a839 ab89 763b 0604 ccbe
000000a0: 9bba 9a3b 4541 eabe 37d7 eabe 658b 17bb
000000b0: 120f 6c3b 10ac 203f 90dd dd3b 9571 483c
000000c0: 12e7 8d3c a141 28bc 367d 9fbb d8b9 a5be
000000d0: 3e3d 96be 5748 a8be 41fc 5ebc adfe a2be
000000e0: 7e9f 99bc 6d1d 893c 82f5 30bf 68f8 8cbc
000000f0: f8a2 553c 1446 6ebc 977d 0b3c c68f fa3b
00000100: 3973 ff3b aeee 253f aa0d 9ebb 6210 493b
00000110: 83eb 1a3f 9e1b f03b cd96 ddbe 600d 44bc
00000120: 5221 f9ba 35b6 ccbe be4d c03b 840a a1be
00000130: 8d57 2f3a e071 d9be be9f a83b 3e30 18bb
00000140: 2e74 b6be 6f6a 87bc 4e5d 27bc be77 a0be
00000150: e469 adbe b8c7 543a ba70 b2be 4895 093f
00000160: 7d46 71b9 aa6a 663a d0b2 5c3c f631 4f3e
00000170: f6f7 273c bc20 b7be b1fc 6dbe f930 023c
00000180: 3e7a 9a3b 824f 803c d879 08bf 6ba2 6039
00000190: ab59 edbe 9c99 63bb d8d4 3fba 77b7 14bf
000001a0: ace0 f23b 4476 65ba 2df2 1b3f db14 403c
000001b0: 251b 333c 061b 80bb b622 aabe 7091 293c
000001c0: fabf d2be 2313 eabe ac29 8ebb 6cc5 803c
000001d0: 65eb a0be a25d cc3b 96eb 88be e121 cdbe
000001e0: e517 74bc 0973 99ba f319 a7be 1495 123f
000001f0: b0fb bdbb e756 48bb c980 2f3c 30af c9bb
00000200: cef5 0cbc b96d a2be 429f e73a 94b5 31bb
00000210: 1d1e 66bb 2ee3 1b3c c754 173c 0809 94be
00000220: 6771 f53b 29e1 9cbb edc3 4c3b cbb7 efbe
00000230: 7ecd 643b 73ef bbbe 8245 77bc d25c c3bb
00000240: 0524 9339 5f39 8ebc be7b 9e3b 7b43 23bc
00000250: 5fe8 85bc 27ab adbe c33d 753c 3fb1 0ebf
00000260: 55d5 e8bb e1d3 3bbc 3bae 853c a71d 343b
00000270: 4832 9aba bb35 86bc aeab f23b ba6a 93be
00000280: ccf9 e6be d708 fbbe 346c 9bbb e13a 52bc
00000290: 31a9 b2be 3616 efbe 6957 72bb e64f 0e3c
000002a0: 4dd1 3a3c 4688 69bb 29bf ebbe 138d afbe
000002b0: 0628 edbe 1e79 eebe 0784 11bc 810f c53b
000002c0: eae2 e9be c75f 073c 60df c6be 8458 05bc
000002d0: f2f7 7ebb 5c32 433b 1b98 8cbe 8cee 84bb
000002e0: 874d a2be a9e6 06bc 5b14 a83b 0469 b6be
000002f0: a518 16bf 8e6d fc3b 2464 b53a 0759 403b
00000300: 05f4 793c dbba bdbb 965c 01bc 314f a8be
00000310: 8049 0e3c 21be 0dbf 17d8 7fba 4da8 b7be
00000320: 047f ad3d 261c c33b 262e c7be 6aba a638
00000330: 6d4d bdbe 9e78 a8be a9af a9be 4202 53bb
00000340: a6f4 abbe 53d0 41bc fd99 e03b 9edf ddb9
00000350: e715 aebe 012e a2be c654 113c db33 03bf
00000360: 29cf b7be 6acf 2ebb d316 98be 29bb 963a
00000370: 2b71 03bb f11f 99be 926f b9be 0b59 ab3a
00000380: d913 cbba 5aa5 acbe ad57 32bb fb04 80bb
00000390: d378 f63b 5bac 1e3f 52ea b4be 2f5e 03bb
000003a0: cb8c 97be 3f5d b7be 648e e83e a153 9a3c
000003b0: feb7 453c 496e 03bf 9f8b a0be ae4c 223f
000003c0: 5d70 f8bb e00a 00bf 0996 0c3b 7495 8a3b
000003d0: f5ce 63bc 0aba 263f a7a3 90bb e7e7 25bc
000003e0: 41bb 693b 0dbd b1be 77f8 c9be a648 653b
000003f0: be25 2abc 313e 0dbf 1208 5cbb 9d6d 303c
