KD_LR/latent/yahooR3/unif_V_BiasedMF_10.npy (npy, 40128 bytes, 1 tensors)

array f4 [1000, 10]
2.1932198e-09 -2.2570813e-10 -7.498395e-09 1.8071074e-09 -5.9929763e-09 -5.5214247e-09 4.2418717e-09 9.0507575e-09
-6.7924727e-10 -8.226367e-09 1.0031495e-07 -5.5885756e-08 4.958917e-08 -5.924296e-08 1.9337407e-09 -8.435044e-08
1.1794918e-07 -1.1863279e-07 1.1459592e-08 -2.5333101e-08 5.549513e-08 1.18161566e-07 -3.9151455e-08 -1.1358111e-07
6.821174e-08 -3.0349447e-08 -9.43577e-09 -3.89652e-08 -4.6496133e-08 3.258982e-08 1.3455285e-08 -4.1391903e-08
-2.809668e-08 -1.1324115e-08 -4.6200768e-08 1.0602779e-08 -5.7065126e-08 -2.74557e-08 -2.3399783e-08 3.5131748e-08
4.5413344e-08 3.242863e-08 -5.828381e-08 -3.9043524e-08 -7.525304e-08 3.228474e-08 1.14158276e-07 -1.2384836e-08
-3.6350745e-08 -5.317405e-08 -5.3638667e-09 -1.568397e-09 4.308901e-09 1.8846804e-09 -2.8932817e-10 3.6725873e-09
-2.5315179e-09 -3.381714e-09 1.7382686e-09 -2.1334434e-10 1.2368727e-06 -1.6020223e-08 -2.8098648e-07 -6.2429126e-07
3.2793693e-07 -2.6335047e-07 7.3790056e-07 -1.8585709e-07 1.7358107e-07 1.6726964e-06 1.4131858e-08 3.8520964e-09
-2.4571772e-08 -1.5289145e-07 2.0706343e-08 -7.005893e-08 4.8885184e-08 -1.0783606e-07 -5.4285028e-08 2.0614399e-08
-3.2165968e-07 -4.4007095e-07 -9.350627e-07 -4.281435e-07 -7.5748073e-07 -1.8711262e-07 6.614362e-07 6.6857797e-07
-7.968965e-07 2.976428e-07 1.6270809e-07 1.8333375e-07 -3.9537107e-07 6.7843814e-07 1.065144e-06 1.9208474e-07
4.1596206e-07 3.4633172e-07 1.5898357e-06 1.3249304e-07 1.0262497e-06 -2.6811193e-09 -1.4010857e-07 -1.573123e-07
-1.1078038e-07 2.2200757e-07 -5.239858e-07 5.2007476e-07 -1.7090179e-07 -2.4799652e-07 7.7314183e-07 -4.7132008e-07
3.013428e-07 -3.2603822e-07 -6.7524286e-07 -1.7065202e-06 8.645494e-08 1.0302824e-07 8.285688e-07 1.8296891e-08
1.2918894e-08 5.621677e-09 1.4459016e-08 -6.6239856e-08 -2.4011062e-08 -1.3414359e-09 -7.310108e-11 2.0029102e-08
5.791003e-09 -1.01344195e-08 4.366674e-09 9.880969e-10 -2.9031462e-08 -2.2442988e-08 1.7808341e-08 4.7241958e-08
5.6183246e-08 -1.3013388e-08 1.0501365e-08 1.8625336e-08 -7.1709247e-09 -4.3313958e-10 -2.7754483e-09 9.850669e-10
5.695156e-10 9.221369e-09 -8.228483e-10 5.009927e-10 -2.078338e-09 -1.1306496e-09 -1.1025594e-09 4.406286e-09
1.3173053e-09 -1.400908e-10 -1.6839975e-09 -8.545715e-10 2.177516e-09 -1.3338838e-08 -5.33653e-09 5.4708826e-10
0.025672661 0.031178657 0.032604396 -0.033894863 -0.049478605 0.013542389 0.006416759 -0.09126674
0.08615246 0.043746803 -2.3168802e-08 -9.801977e-09 6.3874603e-09 -3.5045314e-08 -2.4427067e-09 -4.2194763e-08
8.8650715e-08 -7.3633615e-09 8.6728855e-09 -2.2529202e-08 -1.0109483e-09 -2.1711058e-08 5.004611e-09 -2.4731367e-08
-1.9552688e-08 -1.2382981e-08 3.5814827e-09 -4.533518e-10 -2.0372655e-08 -2.2211712e-08 -4.204094e-09 5.40327e-08
-5.642804e-09 7.0285417e-09 4.409184e-09 2.6061713e-09 -1.056979e-08 7.897441e-09 1.6698998e-08 6.6528942e-09
4.219154e-09 9.92764e-10 -4.113586e-11 8.110452e-09 4.4651144e-11 3.1113132e-09 6.998679e-09 -3.135936e-11
2.7298759e-09 -1.668709e-09 1.8942059e-10 -5.937848e-09 -1.1498178e-08 3.356096e-10 6.890655e-10 2.889331e-10
2.6595237e-09 1.5528007e-08 6.222334e-09 -5.284377e-09 -1.6733077e-08 -4.219541e-09 -7.2368773e-09 -1.3550271e-08
-2.4082591e-09 3.6489562e-09 -8.970659e-09 -3.902262e-09 -4.572257e-09 -9.677625e-09 1.4361262e-10 -2.698191e-10
2.1261064e-09 -1.2510513e-09 7.188746e-10 -2.490082e-09 -1.3329141e-09 -1.4354281e-09 1.2807077e-09 8.611595e-10
-9.787248e-10 -1.6821259e-09 -3.7047038e-10 2.8622569e-09 1.1076536e-09 3.4619982e-09 -8.07988e-09 1.3437479e-10
-1.4718385e-09 5.6408442e-09 -1.073601e-08 -9.377766e-09 -9.008673e-09 1.773347e-08 -1.7518536e-08 8.509744e-09
00000000: 88b7 1631 312b 78af 4ad2 00b2 f05d f830
00000010: c7ea cdb1 f7b6 bdb1 e6bf 9131 a77d 1b32
00000020: c7b5 3ab0 f253 0db2 ba6c d733 0a07 70b3
00000030: defb 5433 5372 7eb3 bae2 0431 2524 b5b3
00000040: 3f4b fd33 11c3 feb3 d2df 4432 149c d9b2
00000050: 8a59 6e33 02c0 fd33 7b27 28b3 e0e9 f3b3
00000060: cd7b 9233 9259 02b3 f51a 22b2 b15a 27b3
00000070: 0ab3 47b3 e3f8 0b33 f828 6732 e1c6 31b3
00000080: 4159 f1b2 fc8b 42b2 486e 46b3 8427 3632
00000090: c517 75b3 b9d7 ebb2 ab00 c9b2 c4e3 1633
000000a0: 800c 4333 a847 0b33 ba53 7ab3 cfb0 27b3
000000b0: cc9a a1b3 72a9 0a33 2d27 f533 16c5 54b2
000000c0: 1120 1cb3 7c61 64b3 124d b8b1 108f d7b0
000000d0: 7e0d 9431 a683 0131 520f 9faf d760 7c31
000000e0: eff6 2db1 be63 68b1 e4e7 ee30 1893 6aaf
000000f0: 9f02 a635 d89c 89b2 7dda 96b4 f894 27b5
00000100: 4f0f b034 9d62 8db4 2414 4635 0290 47b4
00000110: 9a61 3a34 6981 e035 92c8 7232 665b 8431
00000120: e611 d3b2 7b2a 24b4 bbdd b132 4e73 96b3
00000130: d4f5 5133 8093 e7b3 0527 69b3 8b13 b132
00000140: 92b0 acb4 e442 ecb4 0501 7bb5 98db e5b4
00000150: ae55 4bb5 20e9 48b4 8d8d 3135 5478 3335
00000160: 4fea 55b5 b7cb 9f34 dcb4 2e34 66da 4434
00000170: 6343 d4b4 ea1d 3635 12f6 8e35 da3f 4e34
00000180: 6451 df34 78ef b934 5762 d535 6943 0e34
00000190: acbd 8935 c03e 38b1 c070 16b4 ade9 28b4
000001a0: 28e6 edb3 fa60 6e34 08a8 0cb5 449b 0b35
000001b0: 2081 37b4 6224 85b4 e789 4f35 bd09 fdb4
000001c0: 3dc8 a134 5a0a afb4 5642 35b5 960b e5b5
000001d0: 1ba9 b933 6040 dd33 d06a 5e35 4a2b 9d32
000001e0: e6f1 5d32 cb28 c131 6d67 7832 bf3f 8eb3
000001f0: e240 ceb2 945d b8b0 40c0 a0ae 760c ac32
00000200: 33fa c631 a61b 2eb2 ac09 9631 92cd 8730
00000210: dc60 f9b2 a7c8 c0b2 f5f8 9832 15e7 4a33
00000220: 224e 7133 7c91 5fb2 7e69 3432 8cfd 9f32
00000230: 1f64 f6b1 fa1e eeaf 34ba 3eb1 f662 8730
00000240: 198c 1c30 026c 1e32 cd2e 62b0 3ab6 0930
00000250: 82d2 0eb1 3265 9bb0 dc88 97b0 1a66 9731
00000260: 8f0c b530 0e08 1aaf 6572 e7b0 20e7 6ab0
00000270: 44a3 1531 d428 65b2 9d5c b7b1 ea61 1630
00000280: 794f d23c 626a ff3c 308c 053d 57d5 0abd
00000290: 14aa 4abd e5e0 5d3c ad43 d23b 0eea babd
000002a0: b370 b03d d92f 333d bc04 c7b2 8d65 28b2
000002b0: b278 db31 bb84 16b3 8ddc 27b1 a239 35b3
000002c0: 3f60 be33 d000 fdb1 c1ff 1432 3d86 c1b2
000002d0: 95f1 8ab0 1f7f bab2 06f5 ab31 da70 d4b2
000002e0: d1f4 a7b2 edbc 54b2 1c1e 7631 983b f9af
000002f0: f1ff aeb2 12cc beb2 9a73 90b1 9511 6833
00000300: a1e2 c1b1 b57f f131 987f 9731 4018 3331
00000310: 6e96 35b2 50ad 0732 7c71 8f32 7a97 e431
00000320: 12f8 9031 c771 8830 dcea 34ae 2556 0b32
00000330: b860 442e cdce 5531 0879 f031 80eb 09ae
00000340: 7c98 3b31 7a58 e5b0 2845 502f dd05 ccb1
00000350: 8689 45b2 da80 b82f ad68 3d30 b8d7 9e2f
00000360: d6c2 3631 7362 8532 3bcc d531 df91 b5b1
00000370: 6dbc 8fb2 7afb 90b1 3fa8 f8b1 b9ca 68b2
00000380: 8b7e 25b1 1ec1 7a31 601d 1ab2 a914 86b1
00000390: ff19 9db1 a542 26b2 5ce7 1d2f aa55 94af
000003a0: dc1a 1231 74f1 abb0 4e9a 4530 fc1d 2bb1
000003b0: bf31 b7b0 a348 c5b0 e504 b030 b6b6 6c30
000003c0: d183 86b0 8b30 e7b0 12ab cbaf 5bb1 4431
000003d0: 193c 9830 1ee8 6d31 b0cf 0ab2 24bf 132f
000003e0: b749 cab0 64d1 c131 7971 38b2 da1b 21b2
000003f0: 90c4 1ab2 5054 9832 ab7b 96b2 4032 1232
