KD_LR/latent/yahooR3/unif_U_BiasedMF_10.npy (npy, 616128 bytes, 1 tensors)

array f4 [15400, 10]
0	0xbc595577	-0.013265005
1	0x3c05c613	0.0081649
2	0x3c66dea0	0.014091164
3	0x3c0c8205	0.008575921
4	0xba0c96bc	-0.00053630373
5	0x3ccaa781	0.024738075
6	0xbb6f971d	-0.0036558576
7	0x3af0263b	0.001832194
8	0xbade9455	-0.0016981462
9	0x3c0b807b	0.008514519
10	0xac99202f	-4.3520946e-12
11	0x2e1d2c21	3.573686e-11
12	0x2dcf9fee	2.3604198e-11
13	0xac9eb2d2	-4.510483e-12
14	0x2e2e802c	3.967686e-11
15	0xad61e751	-1.2841132e-11
16	0xac96ab31	-4.2822625e-12
17	0x2e0e3950	3.2337966e-11
18	0xae199c4c	-3.4926992e-11
19	0xad1d19bb	-8.93013e-12
20	0x350578e2	4.972227e-07
21	0xb49ed243	-2.958278e-07
22	0xb41cc48f	-1.460014e-07
23	0xb4b32395	-3.3367238e-07
24	0x33b044e8	8.2081726e-08
25	0x351fab9a	5.948183e-07
26	0xb4a58988	-3.0833712e-07
27	0xb488b4ba	-2.546347e-07
28	0xb4bce093	-3.5181128e-07
29	0xb3a3d1d8	-7.628449e-08
30	0xbcbf108b	-0.023323318
31	0x3c0a3e09	0.008437642
32	0xbc92bade	-0.01791137
33	0x3a7364c7	0.00092847313
34	0xba02a2a6	-0.0004983343
35	0x3c90e7b3	0.017688608
36	0xbc8ad937	-0.01694928
37	0xbc8e9a62	-0.0174076
38	0x3a219f4b	0.0006165399
39	0xbbda8652	-0.0066688443
40	0x3c98a440	0.018633008
41	0xbb34476c	-0.002750839
42	0xb9d0e9ce	-0.0003984705
43	0x3b720743	0.0036930598
44	0xbc72b934	-0.014814664
45	0xbbcad753	-0.0061902194
46	0xbb8928bf	-0.0041857655
47	0xbb65e148	-0.0035076905
48	0x3b5837d8	0.003299227
49	0x3a6ef607	0.00091156404
50	0x34f458d1	4.5513164e-07
51	0x34a3a794	3.0483045e-07
52	0x34d42624	3.9515828e-07
53	0xb3dbcb6d	-1.0234985e-07
54	0xb12ce568	-2.5159697e-09
55	0xb441df40	-1.8055744e-07
56	0x350a8a3d	5.161017e-07
57	0xb439f150	-1.7317257e-07
58	0xb4709a1a	-2.2407804e-07
59	0x3485ac90	2.4898736e-07
60	0xb409bc1c	-1.2827553e-07
61	0xb3b836b7	-8.57812e-08
62	0xb4663321	-2.143902e-07
63	0xb40cc03c	-1.310845e-07
64	0xb4715774	-2.247669e-07
65	0x34e42ea0	4.2502234e-07
66	0x3449b99e	1.8787111e-07
67	0x35570829	8.0105616e-07
68	0xb4991d02	-2.8519577e-07
69	0x34628a6a	2.1098245e-07
70	0x2d8fb5ad	1.6337898e-11
71	0xac88bf62	-3.8866002e-12
72	0x2d8a89e0	1.5750012e-11
73	0xae68bfe5	-5.292113e-11
74	0xadad6e61	-1.9716841e-11
75	0x2e196ba5	3.488378e-11
76	0xae65546e	-5.214356e-11
77	0x2e0250d9	2.9630385e-11
78	0xae2082da	-3.6496008e-11
79	0x2e663218	5.2340438e-11
80	0xb472ca56	-2.2611616e-07
81	0x359ef8cc	1.1844327e-06
82	0x3485f189	2.494892e-07
83	0xb50e745b	-5.306844e-07
84	0xb364d796	-5.328146e-08
85	0xb48b3ed1	-2.5936473e-07
86	0x35449c54	7.324318e-07
87	0x34f80077	4.6193938e-07
88	0x35354d1b	6.753996e-07
89	0xb4a5f0ca	-3.0908842e-07
90	0x3bd64cda	0.006539923
91	0xbbeb992e	-0.0071898913
92	0xbc3e7dbb	-0.011626656
93	0x3c9a6f42	0.01885188
94	0xbc4aab3f	-0.01236993
95	0xbc38fbb3	-0.0112904785
96	0x3c076e30	0.008266017
97	0x3b90cb7b	0.004418788
98	0xbc503b6d	-0.012709481
99	0xba4f13ed	-0.00078993925
100	0xb49d58c1	-2.9308106e-07
101	0x34659660	2.1381993e-07
102	0x343dc8b5	1.7675013e-07
103	0x3398ef76	7.121609e-08
104	0x34439bb8	1.821744e-07
105	0xb534fdf2	-6.7424764e-07
106	0x3484352f	2.4625612e-07
107	0xb4ee9e19	-4.4445986e-07
108	0x344665fc	1.8477289e-07
109	0xb2a91f60	-1.9688457e-08
110	0xbcb4060a	-0.021975536
111	0xbc411c7a	-0.0117865745
112	0x3c03b83c	0.00803953
113	0x3bdcc3be	0.0067372015
114	0xbc81fae3	-0.015866702
115	0x3ba965b8	0.0051695965
116	0x3a41f001	0.0007398129
117	0x3b2b9654	0.0026182132
118	0x3cd147bf	0.025546907
119	0xbcd11e46	-0.02552713
120	0xbc01249b	-0.007882263
121	0x3beb1e18	0.0071752183
122	0x3c0a92a7	0.008457816
123	0xbba6dd76	-0.005092318
124	0xbaf09a4d	-0.0018356532
125	0xbc1211e1	-0.0089153955
126	0xba24f948	-0.00062932493
127	0xbc8aa573	-0.016924595
128	0x3a388b03	0.00070397573
129	0xbbb1a0c9	-0.0054207784
130	0x33cf62d4	9.6571654e-08
131	0xb4c9bc27	-3.7576066e-07
132	0xb53ee6b3	-7.111623e-07
133	0x348abfee	2.584415e-07
134	0xb49e098c	-2.943674e-07
135	0xb4d4a9f4	-3.9611734e-07
136	0x33ca9a40	9.434416e-08
137	0xb50bdbeb	-5.210156e-07
138	0x3521e44b	6.0309384e-07
139	0x33888a0e	6.3581055e-08
140	0xbca8ff53	-0.02062956
141	0xbb002c75	-0.0019557748
142	0x3c67915c	0.0141337775
143	0x3b246a3b	0.0025087732
144	0x3c49ed93	0.0123247085
145	0x3b9ca127	0.004779953
146	0x39204337	0.00015283829
147	0xbc7436e9	-0.01490567
148	0x3b8966de	0.004193171
149	0x3b5b3f5a	0.0033454509
150	0xb62d9ecd	-2.5871443e-06
151	0x359b9b0e	1.1593527e-06
152	0xb4f3ccfa	-4.5411417e-07
153	0x362ed8af	2.6054147e-06
154	0x353b8304	6.985358e-07
155	0xb506ec50	-5.026277e-07
156	0x35ab3f9b	1.2759004e-06
157	0x33a39be0	7.6186325e-08
158	0x3338a7f3	4.2993587e-08
159	0x3590bfd6	1.0784668e-06
160	0x349c9ad0	2.9169905e-07
161	0x33fa55e2	1.1657154e-07
162	0xb4113837	-1.3524628e-07
163	0x33a0d196	7.488704e-08
164	0xb534775f	-6.7228933e-07
165	0xb3a681fd	-7.753622e-08
166	0x359e3ac8	1.1789025e-06
167	0x359f5e2f	1.1873834e-06
168	0xb535ec8e	-6.7771987e-07
169	0xb4aafb46	-3.1847793e-07
170	0x3a8a3ed2	0.0010547286
171	0x3c3c4a04	0.011492256
172	0xbc3667c5	-0.011133139
173	0xbc50bb4c	-0.012739968
174	0xbb871ed8	-0.00412355
175	0xbbbf9224	-0.0058462787
176	0x3a085b66	0.0005201608
177	0x3c2d5c9e	0.010581164
178	0x3b189698	0.002328312
179	0xbc71640f	-0.0147333285
180	0xbc5e5376	-0.013569703
181	0xbbf73985	-0.0075446987
182	0xbb080a33	-0.0020758032
183	0xbc4dffef	-0.012573226
184	0xbc2d17c0	-0.0105647445
185	0x3c13ae6d	0.009013754
186	0x3ae782a2	0.0017662833
187	0xbc010f0d	-0.007877124
188	0x3cbfca20	0.02341181
189	0xbb6991ab	-0.0035639803
190	0xbbcfe220	-0.006344095
191	0xbbef770b	-0.007307892
192	0xbc276344	-0.010216538
193	0xbbfada0f	-0.007655389
194	0xbbbd6aba	-0.005780545
195	0xbb352ec4	-0.0027646283
196	0x3b9357c2	0.0044965455
197	0x3c375afc	0.011191126
198	0xbb5189f8	-0.0031973105
199	0x3c3f566d	0.01167832
200	0x341f215c	1.4820165e-07
201	0x33d04e18	9.69996e-08
202	0x34d54277	3.97227e-07
203	0xb3e6791e	-1.0732241e-07
204	0xb244fa52	-1.1465618e-08
205	0x34ec3bd9	4.400197e-07
206	0x34ee51d8	4.4390504e-07
207	0xb4a2a494	-3.0294598e-07
208	0x35575c7a	8.022831e-07
209	0xb50d77a7	-5.270071e-07
210	0xaf63b410	-2.0709501e-10
211	0xaec98939	-9.1647974e-11
212	0x2f7dbe93	2.3077922e-10
213	0x2f6f039b	2.1738204e-10
214	0x3001bb2e	4.7195925e-10
215	0x2f199184	1.3966966e-10
216	0x2fe438ce	4.151332e-10
217	0xae9f386e	-7.240507e-11
218	0xaf270956	-1.5191878e-10
219	0x2f6bfba0	2.146252e-10
220	0xbb1dc077	-0.0024071017
221	0x3c56902c	0.013095897
222	0x3beba659	0.007191461
223	0xbbce7cf4	-0.0063015167
224	0xbc343573	-0.010999071
225	0x3c914cb4	0.01773677
226	0x3a9c4aa4	0.00119241
227	0x3c988509	0.018618124
228	0xbb66e218	-0.0035229977
229	0xb9746538	-0.0002330736
230	0x3cc734d7	0.024317188
231	0xbc5e1c1f	-0.013556509
232	0xbc015cb0	-0.007895634
233	0xbcaa0f87	-0.020759357
234	0x3aa7e28a	0.0012808603
235	0xbb87bb43	-0.0041421964
236	0x3b1df886	0.002410443
237	0xbc475dc9	-0.012168356
238	0xbb13f69e	-0.0022577415
239	0xbb811ec1	-0.0039404337
240	0x360abaf1	2.0672417e-06
241	0x3192b9b0	4.2702695e-09
242	0x35c92315	1.4985877e-06
243	0xb4f1b7fc	-4.5023614e-07
244	0xb402544c	-1.213786e-07
245	0xb512b1ba	-5.4647865e-07
246	0xb0b7d500	-1.3375541e-09
247	0x3591dfa0	1.0868425e-06
248	0x331138ae	3.3811993e-08
249	0x348df200	2.6439375e-07
250	0xbc99c25a	-0.018769432
251	0xba2a3976	-0.00064935477
252	0xba8fc9f6	-0.0010970223
253	0xbc319b10	-0.010840192
254	0x3b8697f5	0.00410747
255	0x3c4fd9ac	0.012686174
