KD_LR/latent/yahooR3/V_BiasedMF_10.npy (npy, 40128 bytes, 1 tensors)

array f4 [1000, 10]
0	0xb84821b2	-4.7715097e-05
1	0xb8616578	-5.373868e-05
2	0xb7e0eb60	-2.6812486e-05
3	0x364ec262	3.0809538e-06
4	0x3828cef2	4.0247054e-05
5	0x37d32a48	2.5172849e-05
6	0xb821c4f6	-3.8568825e-05
7	0x388eea7e	6.814765e-05
8	0xb8854272	-6.3543106e-05
9	0xb7b052c9	-2.1019385e-05
10	0xb5a832ee	-1.2531798e-06
11	0xb5cbc217	-1.5181166e-06
12	0x360a3e78	2.0599964e-06
13	0x34bf9875	3.568745e-07
14	0xb683d634	-3.9290408e-06
15	0x35470e88	7.415442e-07
16	0x343c3926	1.7529655e-07
17	0xb5052b66	-4.9609514e-07
18	0x35b867ca	1.3739275e-06
19	0xb5f50b8c	-1.8257283e-06
20	0x362d57ff	2.583023e-06
21	0x352fdaa8	6.5510767e-07
22	0xb606bb21	-2.007648e-06
23	0x35308a8e	6.5766733e-07
24	0xb3035638	-3.057923e-08
25	0xb4ce65c0	-3.8444523e-07
26	0x35b8d046	1.3769684e-06
27	0xb57157b4	-8.990712e-07
28	0xb60c9817	-2.0950154e-06
29	0x3697b736	4.5214792e-06
30	0x3754b328	1.2677898e-05
31	0xb810e6c9	-3.454721e-05
32	0xb797f60c	-1.8115177e-05
33	0xb8288936	-4.018211e-05
34	0xb7904336	-1.7197435e-05
35	0xb7253b99	-9.848643e-06
36	0x37b4df11	2.1561546e-05
37	0xb7154fcf	-8.899674e-06
38	0x370813ee	8.110872e-06
39	0x37357ca0	1.0817457e-05
40	0xb3874c55	-6.300312e-08
41	0xb3424bb6	-4.5238004e-08
42	0x33d394af	9.8524986e-08
43	0x3217c4c2	8.834094e-09
44	0xb5aec9f8	-1.3022791e-06
45	0x34c65814	3.694446e-07
46	0x326d1e6e	1.38021345e-08
47	0x3538a17b	6.8780327e-07
48	0xb3fc050e	-1.1735584e-07
49	0x341ddcfe	1.4702161e-07
50	0xb519b19c	-5.72554e-07
51	0xb5c1a7fa	-1.4428508e-06
52	0xb56a7a6e	-8.734995e-07
53	0x34dbf502	4.0970195e-07
54	0x35aa21a1	1.2675774e-06
55	0xb53ea715	-7.102365e-07
56	0xb44640da	-1.846378e-07
57	0x34a57094	3.0815556e-07
58	0xb66b9aa1	-3.5107735e-06
59	0x36ab8577	5.1117345e-06
60	0xb49c6426	-2.9130132e-07
61	0x35a68c76	1.2408843e-06
62	0x36888f18	4.069774e-06
63	0x35ed9334	1.7700718e-06
64	0xb59310d8	-1.0957256e-06
65	0x35ee9dd2	1.7778314e-06
66	0xb5c2f370	-1.4524976e-06
67	0xb694fc2d	-4.440101e-06
68	0x35e0cab6	1.6748297e-06
69	0xb586499c	-1.0005201e-06
70	0x33d06728	9.704519e-08
71	0x35065d5c	5.0054746e-07
72	0x344823b8	1.8639446e-07
73	0xb447e8b2	-1.8617973e-07
74	0xb569d2c3	-8.710596e-07
75	0xb5c8d6ae	-1.4963641e-06
76	0xb47da822	-2.3623627e-07
77	0x348397cf	2.4511107e-07
78	0x35047294	4.9340565e-07
79	0xb4fd52fe	-4.7185307e-07
80	0xb389d75c	-6.418733e-08
81	0xb7c4c4be	-2.3456636e-05
82	0x3682c0d8	3.896752e-06
83	0x35394d94	6.903076e-07
84	0xb59ff390	-1.1917309e-06
85	0x36dea67c	6.635497e-06
86	0x3609800e	2.0489128e-06
87	0xb5a4de20	-1.2283599e-06
88	0x373f25ae	1.139326e-05
89	0xb6d09f74	-6.217446e-06
90	0xb440e338	-1.7964055e-07
91	0xb53dac18	-7.0658416e-07
92	0xb5381c45	-6.858648e-07
93	0x346ce180	2.2061249e-07
94	0xb3ea0f20	-1.0899225e-07
95	0xb663b67c	-3.3931856e-06
96	0x34e3d632	4.2437892e-07
97	0xb4b6b488	-3.4031495e-07
98	0x31ffc6cc	7.4440774e-09
99	0xb4d52f7b	-3.9708888e-07
100	0xb6a7b124	-4.9976097e-06
101	0x3682c9b6	3.897784e-06
102	0x37495147	1.19994575e-05
103	0x36ee7ccc	7.107481e-06
104	0x36e26554	6.747121e-06
105	0x369c71e4	4.662421e-06
106	0xb4e23590	-4.2134752e-07
107	0x37e8d531	2.775583e-05
108	0xb78272d6	-1.5550682e-05
109	0x3727c285	9.999266e-06
110	0x37993f7e	1.8268587e-05
111	0x379cc0d2	1.8686438e-05
112	0xb6bd80a8	-5.6476165e-06
113	0x3797875e	1.8063638e-05
114	0xb7f1fdd4	-2.8847637e-05
115	0x378a1864	1.646224e-05
116	0x370d136a	8.408775e-06
117	0x376630e3	1.3720451e-05
118	0x37bbdf80	2.2396212e-05
119	0x35a094da	1.196425e-06
120	0x3393a3b4	6.874998e-08
121	0xb3c4e64e	-9.1688534e-08
122	0xb3e6575a	-1.0726099e-07
123	0xb44b90b2	-1.8958488e-07
124	0xb4903c87	-2.686613e-07
125	0xb215ce04	-8.719784e-09
126	0x34e1db1c	4.206894e-07
127	0x32f4f8f6	2.8518553e-08
128	0x3277f420	1.44328e-08
129	0xb36e90ec	-5.55455e-08
130	0xb5cdc6b5	-1.5331522e-06
131	0xb63ccd20	-2.8133582e-06
132	0x3802eb7b	3.1213724e-05
133	0xb7ef53c3	-2.8530025e-05
134	0xb7c77a81	-2.3779694e-05
135	0x35846b0e	9.865923e-07
136	0xb802bcd2	-3.1170268e-05
137	0x37cd975a	2.4508383e-05
138	0x375d5eb8	1.319468e-05
139	0xb818fae8	-3.64733e-05
140	0xb5446b22	-7.317159e-07
141	0xb7bc3f40	-2.24408e-05
142	0x362efd02	2.607529e-06
143	0xb4d45458	-3.9549445e-07
144	0xb668722a	-3.4637146e-06
145	0x35ac640c	1.2844116e-06
146	0x36130bd8	2.19116e-06
147	0xb58f8365	-1.0692571e-06
148	0xb6fb56fa	-7.4905083e-06
149	0x36810fb3	3.846327e-06
150	0x361a75bb	2.3016316e-06
151	0xb4f65884	-4.5885474e-07
152	0xb5aed75e	-1.302669e-06
153	0x354688ce	7.3959825e-07
154	0x33ee6fe0	1.11030886e-07
155	0xb5d34c81	-1.5742991e-06
156	0xb6268e2a	-2.4818678e-06
157	0x3561349d	8.3895594e-07
158	0x338a43b8	6.438444e-08
159	0x34263434	1.5478946e-07
160	0xb53ea322	-7.1017905e-07
161	0xb45267c2	-1.9595521e-07
162	0xb5ba14a2	-1.3864085e-06
163	0x34bf7a88	3.5665676e-07
164	0xb583923e	-9.802823e-07
165	0xb637c9d6	-2.738661e-06
166	0xb5b2d035	-1.332263e-06
167	0x3517b9f9	5.652251e-07
168	0xb3aac813	-7.952635e-08
169	0x3575f20c	9.1621837e-07
170	0xb58be4ee	-1.0422934e-06
171	0x38b178b9	8.462504e-05
172	0xb5077860	-5.046659e-07
173	0xb543da42	-7.296077e-07
174	0x3811ef5e	3.4793622e-05
175	0x34fcff55	4.7124436e-07
176	0x341e05b0	1.4716966e-07
177	0xb7acf915	-2.0619986e-05
178	0x376eda00	1.42366625e-05
179	0xb86316a7	-5.4142114e-05
180	0xb88d08a4	-6.7250134e-05
181	0x368170f4	3.857649e-06
182	0x3697902f	4.516936e-06
183	0xb8207f1a	-3.8265345e-05
184	0xb83e8eaa	-4.5432396e-05
185	0x38427e04	4.6370566e-05
186	0xb75798d8	-1.2850585e-05
187	0x37cde58e	2.4544799e-05
188	0xb780a03e	-1.5333408e-05
189	0x37dc8e8e	2.6292426e-05
190	0x34abd8a9	3.2008873e-07
191	0xb41b27d1	-1.4449985e-07
192	0xb49e6dec	-2.9509772e-07
193	0xb4ecd901	-4.4116317e-07
194	0xb51f26a2	-5.9288334e-07
195	0x34b6750c	3.3985305e-07
196	0x31e21760	6.580123e-09
197	0x340bcb7f	1.3019415e-07
198	0x347413b7	2.2731443e-07
199	0xb49f7d21	-2.97071e-07
200	0xb6b62288	-5.4280426e-06
201	0x380b1099	3.315564e-05
202	0x37c497c0	2.3435685e-05
203	0x37d6b293	2.5593943e-05
204	0xb73c9994	-1.1241431e-05
205	0x36826dd0	3.8870858e-06
206	0x348a3d88	2.5749273e-07
207	0xb77ca562	-1.5058877e-05
208	0x37424120	1.1578464e-05
209	0xb7b82dfe	-2.1955926e-05
210	0x359a7c6c	1.1510106e-06
211	0xb4858931	-2.4873e-07
212	0x344b45a4	1.8931183e-07
213	0x34096eba	1.2799401e-07
214	0x35670366	8.605915e-07
215	0x35c65bcd	1.4778867e-06
216	0x3452f134	1.9645523e-07
217	0x34c56674	3.6768654e-07
218	0x3437aad7	1.7105354e-07
219	0xb5af2614	-1.3049598e-06
220	0x37aeb86b	2.0828293e-05
221	0xb821fbfe	-3.8620077e-05
222	0xb681c637	-3.867575e-06
223	0x369de3d1	4.705486e-06
224	0x3732e990	1.0664007e-05
225	0xb7b2d81b	-2.1319885e-05
226	0x37bb582c	2.2333195e-05
227	0x3652c564	3.1407335e-06
228	0x35c10a0c	1.4382545e-06
229	0xb6b6dff1	-5.450093e-06
230	0xb44b72d0	-1.8947617e-07
231	0x3433c3e8	1.6741944e-07
232	0x33d34186	9.837372e-08
233	0x35699394	8.701402e-07
234	0xb4f6d460	-4.5975594e-07
235	0xb4894917	-2.5571418e-07
236	0xb5af2dc9	-1.3051841e-06
237	0xb2b56070	-2.1115028e-08
238	0x34095322	1.2789363e-07
239	0xb49ede5a	-2.9591575e-07
240	0x352dd20e	6.475319e-07
241	0xb5f861d4	-1.8505912e-06
242	0xb4fcdd03	-4.7099465e-07
243	0xb61af600	-2.309098e-06
244	0x3500bf39	4.796198e-07
245	0x35ce7d4d	1.5384663e-06
246	0xb47e9bbc	-2.3712249e-07
247	0x364b290c	3.027325e-06
248	0xb509e70a	-5.1372683e-07
249	0x34dcdfc6	4.114101e-07
250	0x342142e1	1.5018624e-07
251	0x339b104e	7.220716e-08
252	0x3238a410	1.0747513e-08
253	0x33ba56de	8.677101e-08
254	0xb3c2f0f4	-9.077658e-08
255	0xb433ae82	-1.673416e-07
